Recognition/checkpoints/secpin_6_best.pth (torch_old, 117910 bytes, 10 tensors)

conv1.weight f4 [6, 1, 5, 5]
0	0xbe315f6f	-0.17321561
1	0x3c97b932	0.018520925
2	0xbe80ccaa	-0.25156146
3	0xbe4d5cba	-0.20054904
4	0xbe24c081	-0.1608906
5	0xba93500e	-0.0011239068
6	0xbd2ea763	-0.0426401
7	0xbba28ff3	-0.0049610077
8	0xbe41d8e8	-0.189304
9	0xbd936da5	-0.071986474
10	0x3e11485b	0.14187758
11	0x3e6cbad7	0.23118149
12	0x3e69ce78	0.22832668
13	0x3e768564	0.24074322
14	0x3e24fe55	0.16112645
15	0xbe9b57f7	-0.3034055
16	0xbda595c0	-0.08085203
17	0xbe2745d6	-0.16335234
18	0xbe2bc32c	-0.16773671
19	0xbe314740	-0.17312336
20	0x3e83c3f2	0.25735432
21	0x3e9447d1	0.28961042
22	0x3e9bea58	0.30452228
23	0x3eb07ef6	0.34471864
24	0x3da2a32e	0.0794128
25	0xbe757980	-0.2397213
26	0x3c5673dc	0.013089146
27	0xbe242fbc	-0.16033834
28	0xbe8dffa0	-0.2773409
29	0xbe1433d7	-0.144729
30	0xbee32be3	-0.4436942
31	0xbe88210f	-0.26587722
32	0xbe50b522	-0.20381597
33	0xbe4daecb	-0.2008621
34	0xbdc20830	-0.09474218
35	0xbf08bfa7	-0.5341744
36	0xbe5bc6fa	-0.21462622
37	0xbd990b78	-0.074728906
38	0xbe8413b8	-0.25796294
39	0xbc0c1f70	-0.008552417
40	0xbebf9a30	-0.37422323
41	0xbea09d31	-0.31369928
42	0xbd99d2b5	-0.07510892
43	0x3ca91108	0.020638004
44	0xbe53a9c0	-0.20670223
45	0xbe4aa8c3	-0.1979094
46	0xbe109728	-0.14120162
47	0xbe045136	-0.12921605
48	0xbe18c08f	-0.14917205
49	0x3e1a8b00	0.15092087
50	0x3e6ee2aa	0.23328653
51	0x3d9b81df	0.0759313
52	0x3ea26353	0.31716403
53	0x3ebc7cad	0.3681387
54	0x3eb82808	0.3596804
55	0x3e2c6550	0.16835523
56	0x3ec4eaee	0.38460487
57	0x3e664bf1	0.22489907
58	0x3e263376	0.16230568
59	0x3f0da17a	0.5532452
60	0x3ebc3760	0.36760998
61	0x3e179d2a	0.14806047
62	0x3df80bc7	0.12111621
63	0x3d7ca545	0.06168105
64	0x3eca2053	0.39477786
65	0x3d99cfcb	0.075103365
66	0xba64805e	-0.0008716638
67	0xbc4ebec8	-0.012618728
68	0x3d1ae286	0.037813686
69	0x3df7aa03	0.12092974
70	0xbb1d5468	-0.002400661
71	0xbdc20433	-0.09473457
72	0xbc9b4d65	-0.018957803
73	0x3e40ce83	0.18828778
74	0x3e6723e4	0.22572285
75	0x3e529941	0.20566274
76	0x3e8147f5	0.2525021
77	0x3daf066e	0.08546148
78	0x3e101857	0.14071785
79	0x3e0c5fb4	0.13708383
80	0x3e83e7fe	0.25762933
81	0x3b7f6c00	0.0038974285
82	0x3bb729fe	0.0055897227
83	0x3eb9c3ce	0.362822
84	0x3e00a520	0.1256299
85	0x3ddc62aa	0.10761006
86	0x3e94d268	0.29066777
87	0x3e05ca69	0.13065495
88	0x3e0aa6ac	0.13540143
89	0x3e26ea91	0.16300417
90	0xbd943e90	-0.07238495
91	0x3d434000	0.047668457
92	0xbcd5f6dc	-0.026118688
93	0xbdd08dea	-0.10183318
94	0x3e6a6139	0.2288865
95	0xbe937c40	-0.28805733
96	0xbe189d2d	-0.14903708
97	0xbed41ab6	-0.4142663
98	0xbeb52942	-0.3538304
99	0xbe927726	-0.28606528
100	0x3e8c9a46	0.2746145
101	0xbd12ee5f	-0.03587186
102	0x3e5a0bd2	0.21293572
103	0x3ea1b9f6	0.3158719
104	0x3ebc14e1	0.3673468
105	0xbe5a40e8	-0.21313822
106	0xbdaebef0	-0.08532512
107	0x3cfe2fe3	0.031028694
108	0x3d2f8b46	0.04285743
109	0x3eb03f6e	0.34423393
110	0xbf158761	-0.58409697
111	0xbeea1ee2	-0.45726687
112	0xbd9b1607	-0.07572561
113	0x3abb2445	0.0014277777
114	0x3da8945e	0.08231424
115	0xbf2ded24	-0.6793997
116	0xbeda4142	-0.42627913
117	0xbea8b7ce	-0.32952732
118	0xbe75e497	-0.24012981
119	0x3cf5a17f	0.029984234
120	0xbe6fcf0b	-0.23418824
121	0xbea78c0b	-0.32724032
122	0x3e2d31cd	0.16913529
123	0x3d5d6495	0.054051
124	0x3d4b27ef	0.04959863
125	0x3e809d1b	0.25119862
126	0xbd63cd12	-0.055615492
127	0x3e2bd59d	0.16780706
128	0x3e9e09ec	0.30866945
129	0x3e9bd7a3	0.30437955
130	0x3e5bf5b3	0.21480446
131	0x3e818578	0.2529714
132	0x3e833ef8	0.2563398
133	0x3ea70ca1	0.32626823
134	0x3e704beb	0.2346646
135	0xbdc963bf	-0.09833478
136	0xbe5347a6	-0.206328
137	0xbe2b2157	-0.16711937
138	0xbc145bb2	-0.009055065
139	0xbc10b399	-0.008831882
140	0xbbb8ae86	-0.005636039
141	0xbe924f70	-0.2857623
142	0x3b90b204	0.0044157524
143	0xbe33d555	-0.17561848
144	0xbd9a8be2	-0.07546212
145	0xbe26a146	-0.16272458
146	0xbe93a61d	-0.28837672
147	0xbe0bc446	-0.13649091
148	0xbe9fcbe1	-0.31210235
149	0xbe022164	-0.1270805

conv1.bias f4 [6]
0	0x3dc523d0	0.09625971
1	0x3e1e1705	0.15438469
2	0xbd741ac2	-0.05959583
3	0x3e3e402d	0.18579169
4	0x3e68fba0	0.22752237
5	0x3daaeff4	0.08346549

conv2.weight f4 [16, 6, 5, 5]
0	0x3dcc5619	0.09977359
1	0x3d093657	0.03349909
2	0xbcb55772	-0.022136424
3	0x3bea0152	0.0071412707
4	0xbddfb50c	-0.10923204
5	0xbded04d8	-0.115731895
6	0xbe03ac22	-0.12858632
7	0xbdb0f43a	-0.086403325
8	0xbd2160c3	-0.03939892
9	0xbcad1796	-0.02112941
10	0xbdc2f84d	-0.09520016
11	0xbdc10d5c	-0.09426376
12	0xbccf0e36	-0.025275331
13	0xbdef1ae2	-0.11675049
14	0xbd638ecd	-0.055556107
15	0xbe4b9565	-0.19881208
16	0xbcd55880	-0.026043177
17	0x3dc56f37	0.09640353
18	0x3de9c830	0.11415136
19	0xbd63a844	-0.055580392
20	0xbe637d8a	-0.22215858
21	0xbda5000f	-0.08056652
22	0xbca887f0	-0.020572633
23	0x3df38797	0.11891096
24	0x3e21753b	0.15767376
25	0x3d942bc2	0.07234909
26	0x3c5cb55c	0.013470974
27	0xbd4dd006	-0.050247215
28	0xbd3ccfc9	-0.046096597
29	0xbcf7db58	-0.030255958
30	0xbc059603	-0.008153441
31	0xbdbba0ca	-0.091615275
32	0xbd22dded	-0.039762426
33	0xbdeb9b69	-0.115042515
34	0x3a87c739	0.0010359056
35	0xbcee735c	-0.029107742
36	0xbca4d568	-0.020121291
37	0x3db30742	0.08741619
38	0x3c432399	0.011910343
39	0x3b9cfe4a	0.004791056
40	0x3d72a873	0.059242677
41	0x3d108683	0.03528453
42	0xbd0a1b69	-0.033717547
43	0xbc069d72	-0.008216249
44	0x3cf17ffe	0.029479977
45	0x3e62386d	0.22091837
46	0x3e26cc92	0.16288975
47	0x3d953d06	0.0728703
48	0x3dd38b3e	0.10329293
49	0x3dbce771	0.092238314
50	0xbd574afa	-0.052561738
51	0xbcc718f6	-0.024303894
52	0xbd1b3f62	-0.037902243
53	0x3d16faca	0.036860265
54	0x3da8ffd1	0.08251918
55	0x3bd5e9ea	0.006528129
56	0x3d8f2620	0.06989694
57	0x3de0c835	0.109756865
58	0x3d6fc5b3	0.05853815
59	0x3bd48c98	0.0064864866
60	0x3d825581	0.06363965
61	0x3e11e9ca	0.1424934
62	0xbcb40a20	-0.021977484
63	0xbcea2b32	-0.02858505
64	0xbd99698f	-0.07490837
65	0x3d9c799b	0.07640382
66	0x3c50332b	0.012707512
67	0xbdaac7d8	-0.083388984
68	0xbe0906a7	-0.13381444
69	0xbe1bcd13	-0.15214948
70	0x3c95d490	0.018289834
71	0xbd2d4cf6	-0.042309724
72	0xbdc86320	-0.097845316
73	0xbdc2c7ac	-0.09510741
74	0xbdfd8530	-0.12378919
75	0xbe30f79e	-0.17281958
76	0xbc060e53	-0.008182126
77	0x3d79edbd	0.06101774
78	0x3d8b919d	0.06814883
79	0x3ddfcef9	0.10928149
80	0x3ce3d35c	0.027810745
81	0x3d26d353	0.04072888
82	0xbcc7a1b7	-0.024369104
83	0x3da45fb7	0.08026069
84	0x3d8495b9	0.0647387
85	0x3d8bd971	0.06828583
86	0x3e0c3e4b	0.13695638
87	0x3da8a938	0.08235401
88	0x3d93cdf8	0.0721702
89	0xbdc545b5	-0.09632436
90	0x3e3a4927	0.18191968
91	0x3dafe962	0.08589436
92	0x3c9d9a16	0.019238513
93	0x3cfe7da7	0.031065775
94	0xbd190d27	-0.03736606
95	0x3dd8e374	0.10590258
96	0x3dfd463a	0.1236691
97	0x3c6ed3f8	0.0145769045
98	0xbd32ab2a	-0.043620266
99	0x3b274614	0.0025523948
100	0xbc2f5dea	-0.010703543
101	0xbd174297	-0.03692874
102	0xbd670b88	-0.05640748
103	0xbe28f686	-0.16500291
104	0xbe063eb8	-0.13109863
105	0xbd809a21	-0.06279398
106	0xbdf7bc29	-0.120964356
107	0xbda03672	-0.078228846
108	0x3c8f84cf	0.017519383
109	0xbdb44f82	-0.088042274
110	0xbcead749	-0.02866711
111	0xbd0281d5	-0.0318621
112	0xbd3de34d	-0.04635935
113	0x3cddccb7	0.027075155
114	0x3cdd139c	0.02698689
115	0x3e249848	0.16073716
116	0x3c8cf402	0.017206196
117	0x3c9ef1dc	0.019402437
118	0x3ded3dba	0.11584039
119	0x3b64c8b5	0.003490967
120	0x3e39f49c	0.18159717
121	0x3dada0b3	0.084779166
122	0x3e0c607c	0.13708681
123	0x3b44f87f	0.0030055342
124	0x3dee1f7a	0.116270974
125	0xbdebbf2d	-0.11511073
126	0xba093d2c	-0.00052352506
127	0x3d8d1199	0.06888122
128	0x3dd2a5de	0.10285543
129	0x3e2e3781	0.1701336
130	0x3cc62a85	0.024190197
131	0x3c73201e	0.0148392
132	0x3de92655	0.113842644
133	0x3d89fac8	0.06737286
134	0x3dfa6dca	0.12227972
135	0x3d395ed9	0.04525647
136	0x3dfccf7d	0.12344263
137	0x3dbacea2	0.09121443
138	0x3cbd5a1f	0.023114262
139	0x3d6d6911	0.057961527
140	0x3e08de26	0.13365993
141	0x3db4aa98	0.08821601
142	0x3ca46586	0.020067941
143	0x3d497a02	0.04918862
144	0x3d2b985c	0.041893348
145	0x3e6d3a58	0.23166788
146	0x3d996919	0.07490749
147	0x3d54b61e	0.051931493
148	0xbc742273	-0.014900791
149	0xbcee86e0	-0.029117048
150	0x3cf64067	0.030060006
151	0x3e09b10f	0.13446449
152	0x3c054dff	0.0081362715
153	0x3dacdcc5	0.08440546
154	0xbda9178d	-0.08256445
155	0x3e6a7f27	0.22900067
156	0x3e6aa9b7	0.22916304
157	0x3df66956	0.1203181
158	0x3de899fa	0.11357494
159	0x3de82f1c	0.113371104
160	0x3e4296f8	0.19002903
161	0x3e1852f8	0.148754
162	0x3e1aba42	0.15110114
163	0x3dbdb1dc	0.092624396
164	0x3e3d6e1d	0.18499036
165	0x3c9e0991	0.019291671
166	0x3c65b37c	0.014019843
167	0xbd73f241	-0.059557203
168	0x3cb20636	0.021731477
169	0x3e1b8365	0.15186842
170	0xbae07e46	-0.0017127476
171	0x3d9337b0	0.07188356
172	0x3d437020	0.047714353
173	0x3de0aa14	0.1096994
174	0x3e67a0c6	0.22619924
175	0x3e2b1de6	0.16710624
176	0x3defbcde	0.117059454
177	0x3dcbc623	0.09949901
178	0xbc3666e9	-0.011132934
179	0x3da93b76	0.082632944
180	0x3e0eb851	0.13937499
181	0x3e1d6a4a	0.15372577
182	0x3d825e5f	0.06365656
183	0xbd956f6a	-0.07296641
184	0x3b561c17	0.0032670551
185	0x3d877b3e	0.066153035
186	0x3cd430fc	0.025902264
187	0xbc7031cf	-0.014660313
188	0x3a2d4da5	0.0006610996
189	0xbdb9ed4d	-0.09078465
190	0x3cab6ea0	0.020926774
191	0x3d3b72e0	0.04576385
192	0xbda699b3	-0.081347845
193	0xbd792604	-0.06082727
194	0xbda0284c	-0.07820186
195	0x3d50c7cf	0.050971802
196	0x3d8d7062	0.06906201
197	0xbd3767af	-0.044776615
198	0x3d445278	0.04793021
199	0xbb20f5d2	-0.0024560583
200	0xbc30370d	-0.010755313
201	0xbddc5273	-0.107579134
202	0xbd567eee	-0.052367143
203	0x3df8d91a	0.12150784
204	0x3d3bc951	0.045846287
205	0xbe0e3cd4	-0.13890392
206	0xbd27c9a5	-0.040963788
207	0xbd806f0f	-0.06271183
208	0xbe11def5	-0.14245208
209	0xbd9878b3	-0.074448965
210	0xbda08da2	-0.07839514
211	0xbd4d3992	-0.05010373
212	0xbd95fcd4	-0.07323614
213	0xbdc28319	-0.09497661
214	0xbe28e4e1	-0.1649356
215	0x3c546a32	0.012964772
216	0x3c845531	0.016153904
217	0xbd741ce5	-0.05959787
218	0x3d918e0c	0.071071714
219	0xbdb58ee0	-0.08865142
220	0xbe395461	-0.18098594
221	0xbe07a364	-0.13245922
222	0xbcec061b	-0.028811505
223	0xbcd0221e	-0.025406893
224	0x3d782a30	0.060587108
225	0xbcf5d724	-0.030009814
226	0xbdfa6614	-0.12226501
227	0xbd49b1cd	-0.04924183
228	0x3d08fdd0	0.03344518
229	0x3c496024	0.012290988
230	0xbe05a2b9	-0.13050355
231	0xbd25eea7	-0.0405108
232	0x3c92e882	0.017933134
233	0x3cf3ae56	0.029746216
234	0x3dd8b9d6	0.105823204
235	0x3e67c235	0.22632678
236	0x3d702140	0.05862546
237	0x3d855626	0.06510572
238	0x3df305ba	0.11866327
239	0x3d5439d7	0.051812973
240	0xbd55dd1c	-0.05221282
241	0x3d6779b0	0.056512535
242	0x3c3ee89f	0.011652141
243	0xbdf06fce	-0.11740075
244	0xbe01ecb6	-0.12687954
245	0xbd74d0b0	-0.059769332
246	0xbd6d5826	-0.057945393
247	0x3ddfc973	0.10927095
248	0x3d5bd885	0.053673286
249	0xbdc96d8a	-0.09835346
250	0x3e1c902f	0.15289377
251	0x3df9f273	0.12204447
252	0xbb40dc13	-0.002942805
253	0xbd271dae	-0.04079979
254	0xbdd7fb31	-0.10545958
255	0x3cd31b3c	0.025769822

conv2.bias f4 [16]
0	0x3d6766a7	0.05649438
1	0x3e6929e9	0.22769894
2	0x3d7065cd	0.058690835
3	0xbd9ddc66	-0.07708053
4	0xbe2184df	-0.15773343
5	0xbd6d0ca2	-0.057873376
6	0x3d07fdb7	0.033200946
7	0x3d0f90a9	0.035050068
8	0xbc12cea7	-0.008960403
9	0xbbeb5f1e	-0.0071829697
10	0xbd54132b	-0.051776092
11	0x3de14e72	0.110012904
12	0xbdbc84ab	-0.09204992
13	0xbd98738a	-0.07443912
14	0x3e4d0251	0.20020415
15	0x3c776e98	0.015102051

fc1.weight f4 [120, 128]
0	0xbc845dbd	-0.01615798
1	0x3d20f805	0.03929903
2	0xbd4165c1	-0.04721618
3	0x3d17fa40	0.03710389
4	0x3ce86d14	0.028372325
5	0x3db4301a	0.08798237
6	0x3de13ca9	0.10997898
7	0x3e02a438	0.12757957
8	0x3c0d50a0	0.0086251795
9	0x3de39eed	0.11114297
10	0x3d9a3585	0.07529739
11	0x3dbcfc11	0.09227765
12	0x3e050f0d	0.12994023
13	0xbcd19f12	-0.025588546
14	0x3e1b671d	0.15176053
15	0x3c535bd3	0.012900311
16	0x3dc5e350	0.09662497
17	0x3c4fa78f	0.012674226
18	0xbb83af25	-0.0040186816
19	0xbd4fd911	-0.05074412
20	0xbc8f6d38	-0.017508134
21	0xbcdbd4a7	-0.026834799
22	0xbdbb7495	-0.09153096
23	0x3d0a4b51	0.033763234
24	0x3dab5352	0.083655015
25	0xbd84d640	-0.064861774
26	0x3d0c96eb	0.034323614
27	0x3e181e92	0.14855412
28	0x3d0fd9fb	0.03511999
29	0x3d82c6ef	0.063856
30	0x3d33c9df	0.04389369
31	0x3d7d9a1e	0.061914556
32	0x3b76fae8	0.0037686173
33	0x3d36a281	0.04458857
34	0x3d2a537c	0.041583523
35	0xbd7b00df	-0.061280128
36	0x3da3fddc	0.08007404
37	0xbdbcca07	-0.09218221
38	0x3e0cde11	0.13756587
39	0xbd66e1f5	-0.056367833
40	0xbdb6a3eb	-0.089179836
41	0xbd8887b2	-0.06666507
42	0xbd115155	-0.035477955
43	0xbc5a27bb	-0.013315137
44	0x3d299fe1	0.041412238
45	0xbd143238	-0.036180705
46	0xbc0ce0ec	-0.008598547
47	0x3ddf4a0c	0.10902795
48	0x3d7e6238	0.062105387
49	0xbd34f22b	-0.044176262
50	0x3db3f601	0.08787156
51	0x3ca160a2	0.019699398
52	0x3dc0f197	0.094210796
53	0x3be9f946	0.0071403114
54	0x3e267c6b	0.16258399
55	0x3dcf6c13	0.101280354
56	0x3c29ecc4	0.010371391
57	0xbdc53bed	-0.096305706
58	0x3c1963db	0.009362186
59	0xbdab0ce6	-0.083520696
60	0xbdb47eae	-0.08813225
61	0x3d93b843	0.072128795
62	0x3e03427d	0.12818332
63	0xbc68fe78	-0.014220826
64	0x3e1894b2	0.14900473
65	0x3de6913b	0.11258169
66	0x3da205a1	0.0791123
67	0x3b459999	0.0030151366
68	0x3d8be944	0.06831601
69	0xbd16736a	-0.03673116
70	0xbabe064e	-0.0014497729
71	0x3d6eec61	0.058330897
72	0x3cf52236	0.02992354
73	0x3cb765b3	0.022387361
74	0x3d02637e	0.031833164
75	0x3e022398	0.1270889
76	0xbbbdb7a6	-0.005789715
77	0x3d2ed8ec	0.04268734
78	0x3d182ed5	0.037154038
79	0x3d270e9d	0.04078542
80	0xbd529caf	-0.051418956
81	0xbd73b7e8	-0.05950156
82	0xbe19ea35	-0.15030749
83	0xbde6f994	-0.11278072
84	0xbd862471	-0.065499194
85	0xbe09767a	-0.13424101
86	0xbde7d18a	-0.11319263
87	0xbd02c8b7	-0.031929698
88	0xbdc90df3	-0.09817114
89	0x3da50e76	0.08059399
90	0x3cd0110b	0.025398752
91	0xbd1601e6	-0.036622904
92	0x3dbc10ed	0.09182916
93	0xbd0a9c7f	-0.033840653
94	0x3c04d254	0.008106787
95	0xbe1b45a0	-0.15163279
96	0xbe3d3b12	-0.18479565
97	0x3c4ef180	0.01263082
98	0xbdd97f6c	-0.10620007
99	0xbe25827d	-0.16163059
100	0xbd0e6703	-0.03476621
101	0xbc53576a	-0.012899259
102	0xbc3975ae	-0.011319561
103	0xbd6edf2c	-0.058318302
104	0x3d85c344	0.065313846
105	0x3dcb1227	0.09915572
106	0xbda1d345	-0.079016246
107	0xba681ca4	-0.00088543654
108	0xbdcf5604	-0.10123828
109	0xbc0816b8	-0.008306198
110	0x3df60cb3	0.12014141
111	0x3d416e6c	0.047224447
112	0xbd6fa73b	-0.058509093
113	0xbcdacc31	-0.026708694
114	0xbd815e47	-0.0631681
115	0xbd580568	-0.05273953
116	0xbd95275b	-0.07282897
117	0xbd281377	-0.041034188
118	0xbe3f3975	-0.18674262
119	0xbdf6859b	-0.12037202
120	0xbd85501b	-0.065094195
121	0xbb6d36c2	-0.0036195968
122	0xbdb05104	-0.086092025
123	0xbc166cda	-0.009181226
124	0xbd788469	-0.06067315
125	0x3d8af04a	0.06784113
126	0x3c532958	0.012888275
127	0x3dd5498d	0.10414419
128	0xbdcc2d2a	-0.09969552
129	0xbdb70e0e	-0.089382276
130	0xbddfb231	-0.10922659
131	0xbc9ae7d3	-0.01890937
132	0xbca52a97	-0.02016191
133	0xbb610630	-0.0034335963
134	0x3c1d099b	0.00958481
135	0x3ccd9e15	0.025099793
136	0x3b8097df	0.0039243544
137	0x3e08f765	0.13375624
138	0x3d84dce8	0.06487447
139	0x3ce5cd4a	0.028051991
140	0xbcb4ab8c	-0.022054456
141	0xbd37cdc7	-0.04487398
142	0x3d86a1a1	0.06573797
143	0xbd360c60	-0.044445395
144	0xbddf8e81	-0.10915852
145	0xbdb199cf	-0.08671915
146	0x3c62fa4d	0.013853622
147	0xbd7bab13	-0.061442446
148	0x3e069c43	0.13145547
149	0x3e0c2e35	0.13689502
150	0x3dc00439	0.093758054
151	0x3c9202ca	0.017823596
152	0x3ddd988c	0.10820112
153	0x3b7415bc	0.00372444
154	0x3debc92a	0.115129784
155	0x3d73577b	0.0594096
156	0x3d9ca5ef	0.07648837
157	0x3cf466dc	0.029834203
158	0xbc41f180	-0.011837363
159	0x3c5fd0c0	0.01366061
160	0xbd622e72	-0.055220075
161	0xbdc0ecb2	-0.09420146
162	0x3a0a821e	0.0005283671
163	0x3b8dee91	0.004331418
164	0x3c4d71db	0.012539352
165	0x3d9ec51b	0.07752439
166	0x3cb0c95d	0.021580392
167	0x3d566dc7	0.052350786
168	0xbc3df1af	-0.011593266
169	0xbd64855f	-0.055791255
170	0xbd056781	-0.032569412
171	0xbd3f6438	-0.046726435
172	0xbbd6a7ee	-0.0065507805
173	0x3ce60e58	0.028083012
174	0x3b79a863	0.003809475
175	0x3d76d570	0.060262144
176	0xbe05357e	-0.13008687
177	0xbdc89174	-0.09793368
178	0xbcdf1869	-0.02723332
179	0xbd803016	-0.06259172
180	0x3ddfdf12	0.10931219
181	0x3bbf1316	0.0058311326
182	0x3e0d7c1b	0.13816874
183	0x3d3e3eea	0.04644672
184	0xbab66520	-0.0013915636
185	0xbddac7a8	-0.10682613
186	0x3b4240aa	0.0029640594
187	0xbd84b60a	-0.06480034
188	0xbd987381	-0.074439056
189	0xbc21cac5	-0.009875004
190	0x3bda722e	0.0066664433
191	0xbd15d0d8	-0.036576122
192	0x3dc10559	0.09424848
193	0x3dd50263	0.10400846
194	0xbd63a657	-0.055578556
195	0xbcd321d1	-0.02577296
196	0xbd6e8110	-0.058228552
197	0xbd9c599c	-0.07634279
198	0x3d8de96f	0.069292895
199	0xbdc0d45d	-0.09415505
200	0xbd193410	-0.037403166
201	0xbd80852d	-0.06275401
202	0x3d5a60f3	0.053315114
203	0xbcd267b6	-0.025684219
204	0x3da55bbb	0.08074137
205	0xbd8a2d99	-0.06746978
206	0x3deb5c12	0.114921704
207	0x3e153517	0.14571033
208	0xb9127e8b	-0.00013970786
209	0xbd0d9e19	-0.0345746
210	0xbc3eb608	-0.011640079
211	0x3db839b8	0.08995384
212	0x3d090e59	0.03346095
213	0x3d7d9e8e	0.061918788
214	0xbd696b6e	-0.05698722
215	0x3d97f58d	0.07419882
216	0xbe210fa1	-0.15728618
217	0xbdde7019	-0.10861225
218	0x3b0eb219	0.0021773635
219	0xbcd571f3	-0.026055312
220	0x3e0ec999	0.13944091
221	0xbb902331	-0.0043987264
222	0xbaf8f5b1	-0.001899412
223	0x3c7a9762	0.015294882
224	0xbceb670c	-0.02873566
225	0xbc3fddcf	-0.011710598
226	0x3c92dc43	0.017927295
227	0x3d4422a0	0.047884583
228	0x3db1ac03	0.08675387
229	0x3cfdc548	0.03097786
230	0xbaa293aa	-0.0012403626
231	0x3dd9554f	0.106119744
232	0xbe0021cf	-0.12512897
233	0xbdd95604	-0.10612109
234	0xbd62dbe9	-0.055385504
235	0xbd901a1e	-0.070362315
236	0x3c760f9b	0.015018369
237	0x3e133fb8	0.14379776
238	0x3c979a71	0.01850626
239	0x3e43aa2c	0.19107884
240	0xbdb3be5d	-0.08776543
241	0xbdd48195	-0.10376278
242	0x3d32228b	0.043489974
243	0xbcaab8ba	-0.020840038
244	0xbd979fb8	-0.07403511
245	0xbaf2f940	-0.0018537417
246	0x3cdb96fc	0.026805393
247	0xbde6d1dc	-0.11270496
248	0x3d9136df	0.07090544
249	0x3d904de9	0.0704611
250	0x3db4ab99	0.08821792
251	0xbd8496fc	-0.064741105
252	0xbd4f18e3	-0.050560843
253	0x3d057799	0.03258476
254	0x3ca245eb	0.01980873
255	0xbc8fb95a	-0.017544437

fc1.bias f4 [120]
0	0x3e457c03	0.19285588
1	0xbe217677	-0.15767847
2	0xbe30c6d2	-0.17263344
3	0x3d2afb9a	0.041743852
4	0x3e15b142	0.146184
5	0xbd54ec03	-0.05198289
6	0x3e0dbec7	0.13842307
7	0x3d5e53fb	0.05427931
8	0xbc1f5e14	-0.00972702
9	0xbcbf5c03	-0.023359304
10	0x3dc84a01	0.0977974
11	0xbdc2452d	-0.094858505
12	0xbdabec17	-0.0839464
13	0x3d1a47f4	0.037666276
14	0xbdab71c8	-0.083713114
15	0x3de80bae	0.11330353
16	0xbc9dc1bb	-0.019257417
17	0xbcb13b24	-0.021634646
18	0xbca019bb	-0.01954352
19	0x3ba21100	0.004945874
20	0x3ca2dacc	0.019879721
21	0x3d9f2c51	0.077721246
22	0xbd179ad5	-0.037012894
23	0x3de1afa4	0.11019829
24	0x3ca259b2	0.01981816
25	0xbd8972cb	-0.06711348
26	0xbe2edd52	-0.17076614
27	0x3b96efaa	0.004606207
28	0xbe026b46	-0.12736234
29	0xbc6bd49c	-0.014393952
30	0xbd516204	-0.051118866
31	0xbd83b1d5	-0.06430403
32	0xbce07643	-0.027400142
33	0xbc11d912	-0.008901851
34	0x3df0efaa	0.11764462
35	0x3d153611	0.036428515
36	0xbd9d0d6e	-0.07668577
37	0xbdffa44d	-0.1248251
38	0x3d0511e4	0.032487765
39	0xbda4e0df	-0.08050703
40	0xbdd6075e	-0.10450624
41	0x3e2e6952	0.17032364
42	0xbdf7725a	-0.12082358
43	0xbdbec8bb	-0.0931563
44	0x3dcb7d22	0.099359766
45	0x3de45b06	0.11150174
46	0xbca80978	-0.020512328
47	0x3d875da9	0.06609661
48	0x3d8514c5	0.06498102
49	0xbe1845cb	-0.14870374
50	0xbd4777f2	-0.048698373
51	0x3df23acb	0.1182762
52	0xbb402654	-0.002931972
53	0x3dab8171	0.08374298
54	0xbe1cc122	-0.1530805
55	0xbd4b7b20	-0.049677968
56	0xbd2cdd90	-0.042203486
57	0xbdca9f05	-0.09893612
58	0x3d0d274b	0.0344613
59	0xbdbf0e42	-0.09328891
60	0x3d1f7a5d	0.038935054
61	0xbd7cd7d0	-0.061729252
62	0xbca9698c	-0.020680211
63	0xbd7fbd3a	-0.06243632
64	0xbdc5378b	-0.096297346
65	0x3dd02037	0.101623945
66	0xbb949e64	-0.004535483
67	0xbd2b8eae	-0.041884117
68	0x3d8378c5	0.06419519
69	0xbd2a0af1	-0.04151434
70	0x3b881ca1	0.0041538035
71	0x3ddb983b	0.10722395
72	0xbdbcaa88	-0.09212214
73	0xbd454098	-0.048157305
74	0xbd26f6c9	-0.040762696
75	0x3e0ebde3	0.13939624
76	0x3d508387	0.050906684
77	0x3d22c0c7	0.039734628
78	0x3e394d6c	0.1809594
79	0xbdeda7dd	-0.11604283
80	0x3d689258	0.05678019
81	0xbd868d4a	-0.065699175
82	0x3cefda0a	0.029278774
83	0xbe102a78	-0.140787
84	0xbbd61926	-0.0065337596
85	0x3d8752a1	0.06607557
86	0xbddc328f	-0.10751831
87	0x3db07d73	0.086176775
88	0x3e28f561	0.16499855
89	0xbdaa1e73	-0.08306589
90	0xbe4e02ff	-0.2011833
91	0xbe09eb2b	-0.13468616
92	0x3e058db1	0.13042332
93	0xbe0662f3	-0.13123684
94	0xbdabf7c0	-0.08396864
95	0x3d7c5e91	0.061613623
96	0x3d9e8abc	0.07741305
97	0xbe013e94	-0.12621528
98	0x3d7b30ae	0.06132572
99	0xbc8f4c30	-0.017492384
100	0xbe02abf7	-0.12760912
101	0x3e2f3796	0.17111048
102	0xbc9707b7	-0.018436296
103	0x3d4f84cb	0.05066375
104	0xbc93e288	-0.018052354
105	0x3d639d53	0.055569958
106	0x3d9f6a06	0.07783894
107	0x3dfb36ee	0.122663364
108	0xbd37e857	-0.04489931
109	0xbda99c97	-0.0828182
110	0xbdc816ad	-0.0976995
111	0xbc809f16	-0.015700858
112	0xbda89b9f	-0.08232807
113	0xbe2fe832	-0.17178419
114	0x3da7e5a8	0.081981
115	0x3e68f293	0.22748785
116	0x3cecbaed	0.028897727
117	0xbd5297b9	-0.051414225
118	0x3d55b792	0.05217702
119	0x3db354f5	0.08756439

fc2.weight f4 [84, 120]
0	0xbe6efec2	-0.2333937
1	0xbdb3866d	-0.08765874
2	0x3d37377f	0.04473066
3	0x3c96187c	0.018322222
4	0x3de2929f	0.11063122
5	0x3e62d4c9	0.22151484
6	0x3d906099	0.070496745
7	0x3ce1b9f3	0.027554488
8	0x3d0f427e	0.03497552
9	0xbcba7568	-0.022761062
10	0x3c59ff06	0.013305431
11	0xbdf7535d	-0.12076447
12	0x3dccd92e	0.10002361
13	0xbdf2bc9b	-0.1185238
14	0xbd5418d1	-0.05178148
15	0xbe0381e0	-0.12842512
16	0x3da63c10	0.08116925
17	0x3e0d7c6e	0.13816997
18	0xbc899b26	-0.016797613
19	0xbd94a2d3	-0.07257619
20	0xbd8f2882	-0.06990148
21	0xbe134df9	-0.14385213
22	0xbdf43d91	-0.11925805
23	0xbdd17a0c	-0.10228357
24	0xba37ee17	-0.0007016374
25	0x3e2e5c22	0.17027333
26	0xbdb9f104	-0.09079173
27	0xbd667870	-0.056267202
28	0x3d5da938	0.054116458
29	0x3d8805d3	0.06641736
30	0x3e00e547	0.12587462
31	0xbb254f2b	-0.002522419
32	0xbd47bf2e	-0.048766308
33	0x3e3471ef	0.17621587
34	0xbca4184c	-0.020031117
35	0xbddd39e9	-0.10802061
36	0x3df72cd1	0.12069095
37	0x3c4da1d2	0.012550788
38	0x3db26d80	0.08712292
39	0x3e1f67ad	0.15566893
40	0x3e5f2eee	0.21795246
41	0xbd8cde1b	-0.06878301
42	0x3d94efb0	0.07272279
43	0xbcfc9061	-0.030830564
44	0xbdac9848	-0.08427483
45	0xbd395895	-0.045250494
46	0x3dd4774f	0.10374319
47	0x3e14f9d7	0.14548431
48	0x3e107917	0.14108692
49	0x3d9efcdc	0.07763073
50	0x3ac52c4e	0.0015043111
51	0x3ba814cf	0.0051294337
52	0x3e11a40b	0.14222734
53	0x3d37165c	0.044699058
54	0xbb68c1ec	-0.0035515977
55	0xbda9b149	-0.082857676
56	0x3c274d20	0.010211259
57	0x3b5232b9	0.003207369
58	0x3e52d346	0.20588407
59	0xbe8debf3	-0.27719077
60	0xbda09c9d	-0.078423716
61	0x3ded81bd	0.11597011
62	0x3d030a01	0.031991962
63	0xbbfe7045	-0.0077648484
64	0x3dcfa6d9	0.101392455
65	0xb9c9111a	-0.0003835045
66	0x3d465546	0.048421167
67	0x3db9b574	0.090678126
68	0x3d084c9a	0.033276178
69	0xbdf5aaa0	-0.11995435
70	0x3de21670	0.11039436
71	0xbe07a3d3	-0.13246088
72	0x3d63fcc7	0.05566099
73	0xbd47f941	-0.04882169
74	0x3bc66c30	0.0060553774
75	0xbe0a89f6	-0.1352919
76	0xbe00c831	-0.12576367
77	0x3e491508	0.19636929
78	0x3ddb417e	0.10705851
79	0xbdfa77ed	-0.12229905
80	0xbce9589c	-0.028484635
81	0xbdc039c1	-0.09386016
82	0x3dc38451	0.09546722
83	0xbc725bb8	-0.014792375
84	0xbd469a31	-0.048486892
85	0x3e534f0f	0.20635627
86	0xbd604e9f	-0.05476248
87	0x3d3aa1a8	0.045564324
88	0xbd8fd763	-0.07023504
89	0x3e0b7232	0.13617781
90	0xbd7a2dfa	-0.061079003
91	0x3c8cc84a	0.017185349
92	0x3b4fc1c3	0.0031701184
93	0x3d9e4ced	0.07729516
94	0x3d8a903d	0.067657925
95	0x3d39f8cc	0.045403287
96	0x3d8859a5	0.06657723
97	0x3e8c1fff	0.2736816
98	0xba91fe55	-0.0011138419
99	0x3e2d83ce	0.16944811
100	0x3d301b57	0.042994823
101	0xbdc3845a	-0.095467284
102	0xbe0a0b81	-0.13480951
103	0xbe3dc2a4	-0.18531281
104	0x3d9c871a	0.07642956
105	0x3d298bd1	0.041393105
106	0xbe219bf1	-0.15782143
107	0x3d2aedd7	0.041730728
108	0x3e1e9741	0.15487386
109	0xbd86da25	-0.065845765
110	0x3e5d94da	0.21638814
111	0xbc4946dd	-0.0122849615
112	0x3c0788e8	0.008272387
113	0x3e0142d0	0.12623143
114	0x3a4b2564	0.0007749407
115	0xbe0c0944	-0.1367541
116	0x3c06c1b7	0.008224896
117	0x3e1db38e	0.15400526
118	0xbae01a5b	-0.0017097698
119	0xbe110972	-0.1416376
120	0xbd8e1e9d	-0.06939433
121	0x3ca2de42	0.019881371
122	0xbd24f332	-0.04027099
123	0xbdbce4d1	-0.09223331
124	0xbdb387b6	-0.08766119
125	0x3d37b578	0.044850796
126	0x3d94591a	0.07243557
127	0x3dd20129	0.102541275
128	0x3e2230ea	0.15838972
129	0x3e5bf703	0.21480946
130	0x3d32f88e	0.04369407
131	0xbe369f6c	-0.17834252
132	0xbd694aee	-0.056956224
133	0xbda4f8ca	-0.08055265
134	0xbdd2ce32	-0.10293235
135	0xbd93d392	-0.07218088
136	0x3cfa17ac	0.030528866
137	0xbe8c0dc7	-0.2735426
138	0xbb393830	-0.002826225
139	0x3e2f5fa7	0.17126332
140	0x3dae143b	0.084999524
141	0xbe0ea483	-0.13929944
142	0x3c865cc8	0.016401663
143	0xbbb5c878	-0.0055475794
144	0x3d364d7c	0.04450749
145	0xbd93e452	-0.07221283
146	0x3d6930a6	0.05693116
147	0x3d6cf302	0.057848938
148	0x3e15b9df	0.14621685
149	0x3cd6e858	0.026233837
150	0x3d53a929	0.051674996
151	0x3dab6e7b	0.08370682
152	0xbde519c9	-0.11186559
153	0x3e0773ed	0.13227816
154	0xbda6b081	-0.08139134
155	0xbe0b4d08	-0.13603604
156	0x3d91f665	0.07127074
157	0xbe00b624	-0.12569481
158	0xbd08958e	-0.03334575
159	0x3ce28c20	0.027654707
160	0x3e19aa40	0.15006351
161	0x3d82490d	0.063615896
162	0x3d2ed16c	0.04268019
163	0xbcf58564	-0.029970832
164	0x3c8205a8	0.015871838
165	0x3dfc0802	0.12306215
166	0x3e2c239b	0.16810457
167	0xbe0a6258	-0.13514078
168	0xbe360001	-0.17773439
169	0x3ccbc896	0.02487592
170	0xbc8390c9	-0.01606025
171	0xbea00e7e	-0.31261057
172	0x3dba6c1e	0.09102653
173	0xbcd06376	-0.025438052
174	0xbdde15b9	-0.10843987
175	0x3bb5fb5a	0.005553645
176	0x3a9baed9	0.001187767
177	0xbd9af96d	-0.075671054
178	0x3d91b2de	0.07114194
179	0xbe23e6fb	-0.16006081
180	0xbd4d71be	-0.0501573
181	0xbcab7c1d	-0.020933205
182	0x3c804bec	0.015661202
183	0x3d679c9a	0.05654583
184	0xbb33b7d8	-0.0027422812
185	0xbb528bb8	-0.0032126736
186	0x3dab1033	0.08352699
187	0x3da0cd2e	0.07851635
188	0xbcb2f6ba	-0.021846164
189	0x3b7a4ae2	0.0038191606
190	0x3c9675e1	0.018366756
191	0xbb5bf4e3	-0.0033562712
192	0xbe9b45ab	-0.3032659
193	0x3c1739c0	0.009230077
194	0x3d720a5b	0.059091907
195	0xbd95ebd2	-0.0732037
196	0xbe1f3a24	-0.15549523
197	0x3e55e8f2	0.20889643
198	0xbda0c536	-0.07850115
199	0x3ddeb2c5	0.10873941
200	0xbd384ca1	-0.044994954
201	0xbd7e540a	-0.062091865
202	0x3d0c3623	0.034231316
203	0x3df2ee90	0.118619084
204	0x3d1be172	0.0380568
205	0x3d783994	0.060601786
206	0x3d7393d8	0.059467167
207	0x3db7b2f2	0.08969678
208	0x3cc8669a	0.024462987
209	0xbd297cfe	-0.041378967
210	0x3d9d3021	0.076751955
211	0x3b38287f	0.002810031
212	0x3d32579d	0.043540586
213	0xbe8798b8	-0.26483703
214	0xbdbef9bf	-0.09324979
215	0x3da15829	0.07878143
216	0x3d823082	0.063569084
217	0x3da3d45f	0.07999491
218	0x3de63510	0.112405896
219	0x3d864819	0.0655672
220	0xbd53910e	-0.051652007
221	0xbde79e5e	-0.11309503
222	0xbdb1c38e	-0.08679877
223	0x3dafe889	0.085892744
224	0xbd659583	-0.05605079
225	0x3c93b174	0.018028952
226	0x3d9e9a08	0.07744223
227	0x3d446cd8	0.047955364
228	0x3d29904e	0.041397385
229	0x3d83adef	0.064296596
230	0x3dde892d	0.10866008
231	0xbd209f79	-0.039214585
232	0x3d8c604c	0.06854305
233	0xbd723f97	-0.059142675
234	0x3d11895a	0.03553138
235	0xbd7cb619	-0.0616971
236	0x3daeefa6	0.08541803
237	0xbe243c4d	-0.16038628
238	0x3deed469	0.11661608
239	0x3d27ac60	0.040935874
240	0xbde491c7	-0.11160617
241	0x3ca27a4a	0.019833703
242	0xbd937f95	-0.07202069
243	0x3d8c10f8	0.06839174
244	0xbdc4daed	-0.09612069
245	0x3cb40ea8	0.021979645
246	0x3db251bf	0.08706998
247	0x3dc1ff1d	0.09472487
248	0x3e0193c4	0.12654024
249	0x3ddc8b80	0.10768795
250	0xbd2302e3	-0.039797675
251	0xbd9c4e58	-0.076321304
252	0x3d4d6057	0.050140705
253	0x3c3372cb	0.010952662
254	0xbda934a9	-0.08261997
255	0x3d9cf9cb	0.07664832

fc2.bias f4 [84]
0	0x3ce809a5	0.028324911
1	0xbc6d18e8	-0.01447127
2	0x3cb8eb75	0.022573212
3	0x3ce7b634	0.028285123
4	0xbc9332c5	-0.017968545
5	0xbd108af4	-0.035288766
6	0xbdc40a1f	-0.09572243
7	0x3ccb920f	0.02484992
8	0x3dbfac77	0.09359067
9	0x3d83d326	0.06436758
10	0xbcc5935f	-0.024118124
11	0x3daf20f6	0.08551209
12	0xbd327422	-0.043567784
13	0x3df63e36	0.120235845
14	0x3d7e7d9b	0.062131505
15	0x3e081ff7	0.13293444
16	0xbd061995	-0.03273924
17	0xbd97d0b6	-0.07412855
18	0x3d7b7b36	0.0613968
19	0x3dc62f10	0.09676945
20	0xbe35f762	-0.1777015
21	0x3cf9786e	0.030452933
22	0x3d52f69b	0.051504713
23	0xbbb71279	-0.005586919
24	0xbd259ca6	-0.040432595
25	0x3e192641	0.14955999
26	0x3d7bc5b2	0.061467834
27	0x3d4612b4	0.04835768
28	0xbd73ffa0	-0.059569955
29	0x3b0f262c	0.002184282
30	0xbcb72a7f	-0.02235913
31	0xbc6a4a13	-0.014299887
32	0x3e40ff05	0.18847282
33	0x3d4e8d5c	0.05042778
34	0x3dcdcfc2	0.10049392
35	0x3e33ffc7	0.1757804
36	0x3d926e47	0.0714994
37	0xbd1e987d	-0.038719643
38	0xbd2a0307	-0.041506793
39	0xbc4a57e6	-0.012350058
40	0xbdcfe10b	-0.101503454
41	0xbe3dcbfd	-0.18534847
42	0x3c303660	0.0107551515
43	0x3d4dd7fc	0.050254807
44	0xbd97c283	-0.07410147
45	0xbda72f1f	-0.081632845
46	0x3e372239	0.17884149
47	0x3dfb4e14	0.122707516
48	0x3bf40450	0.007446803
49	0x3d4d778e	0.050162844
50	0xbdff34a5	-0.12461213
51	0x3d4119d3	0.04714377
52	0x3d719c73	0.058987092
53	0x3ddc83ce	0.10767327
54	0xbd2ae8cc	-0.04172592
55	0xbe535348	-0.20637238
56	0x3b6735cf	0.0035279875
57	0x3d1ba509	0.037999187
58	0xbdc0a5ec	-0.09406647
59	0xbd94e129	-0.072695084
60	0xbd146b8f	-0.03623539
61	0x3cfed060	0.03110522
62	0x3cbe7434	0.02324877
63	0x3df32cf4	0.118738085
64	0xbd7103d3	-0.058841538
65	0x3be79cc3	0.007068248
66	0x3d4d57fa	0.05013273
67	0xbdd3f752	-0.10349907
68	0xbd2011ed	-0.039079595
69	0xbd98c0d7	-0.07458656
70	0xbd51fce8	-0.05126658
71	0x3d66bb06	0.056330703
72	0xbda94929	-0.08265907
73	0xbe0e49fb	-0.13895409
74	0xbe1f12bc	-0.1553449
75	0x3c900ecf	0.017585186
76	0x3d8f648d	0.070016004
77	0xbdd23e59	-0.10265798
78	0x3d9ad09c	0.0755932
79	0x3d1fa984	0.038980022
80	0x3dc8d165	0.09805564
81	0xbba6a345	-0.005085381
82	0xbd0d52c5	-0.034502763
83	0x3d9cd2dc	0.07657406

fc3.weight f4 [10, 84]
0	0xbe0fe336	-0.14051518
1	0xbcf1f9ea	-0.029538114
2	0x3c8949c0	0.0167588
3	0x3a21c12d	0.0006170448
4	0xbdb1ff66	-0.086912915
5	0x3bf95a47	0.007609639
6	0xbda0dc97	-0.07854574
7	0x3d585194	0.052812174
8	0x3d342273	0.043978166
9	0x3e5853ef	0.21125768
10	0xbe4bc88d	-0.19900723
11	0x3e13392e	0.14377281
12	0xbd827871	-0.063706286
13	0xbcdca6ab	-0.026934942
14	0x3d5f3129	0.054490242
15	0x3db25bca	0.087089136
16	0xbd37de46	-0.04488971
17	0xbdd87166	-0.10568504
18	0x3ceba42b	0.028764805
19	0x3c5bbc24	0.013411555
20	0xbdb563ae	-0.08856903
21	0x3dd2b3f6	0.10288231
22	0x3cea8ff1	0.02863309
23	0x3e41020a	0.18848434
24	0xbde9ac70	-0.11409843
25	0x3e68df66	0.2274147
26	0x3d675b9b	0.056483846
27	0x3e1a4b1b	0.15067713
28	0xbd31b4db	-0.043385368
29	0xbe301993	-0.17197256
30	0xbd9b99f1	-0.07597721
31	0x3d3240ef	0.043518957
32	0x3dcab713	0.098982
33	0x3da365c6	0.07978396
34	0x3ded6359	0.11591215
35	0xbd574992	-0.052560396
36	0x3b31ffa4	0.002716043
37	0xbdbc1caf	-0.091851585
38	0xbdb5f5f8	-0.088848054
39	0x3cd8850a	0.026430625
40	0xbdd7295a	-0.10505934
41	0x3ce3e59d	0.02781945
42	0xbd33df59	-0.043914173
43	0xbdf334c0	-0.11875296
44	0xbd93d21d	-0.0721781
45	0xbe0e65b2	-0.13905981
46	0x3e2c599e	0.16831061
47	0x3e01ad2a	0.12663713
48	0xbda14d2f	-0.0787605
49	0x3e1f6f8a	0.15569893
50	0xbe9b61b6	-0.30347985
51	0xbe011916	-0.12607226
52	0x3e309581	0.17244531
53	0x3d872c87	0.0660029
54	0x3e8817ae	0.26580566
55	0xbe3c969d	-0.1841683
56	0x3de10ec3	0.10989144
57	0xbbf3b7fd	-0.0074377046
58	0x3e5066c2	0.20351699
59	0x3e0ab702	0.13546374
60	0x3d914e5b	0.07095023
61	0xbe122c17	-0.14274631
62	0x3df4b160	0.11947894
63	0x3dee81dc	0.116458625
64	0xbdfdfef9	-0.12402148
65	0xbe04f87e	-0.12985417
66	0xbe63396a	-0.2218987
67	0xbdd8a68e	-0.10578643
68	0xbd14d51f	-0.03633606
69	0xbde4e68e	-0.11176787
70	0x3e34e323	0.17664771
71	0x3dc36b7c	0.095419854
72	0xbdb3a39c	-0.087714404
73	0x3d657735	0.056021888
74	0xbd586759	-0.052832935
75	0xbde59770	-0.11210525
76	0x3d58cec5	0.052931566
77	0xbe3e94d3	-0.1861146
78	0x3dbf9858	0.09355229
79	0x3bf5c1d5	0.007499913
80	0x3d5a1afb	0.053248387
81	0xbcc21dbf	-0.023695825
82	0xbd9f2465	-0.077706136
83	0xbdbc6774	-0.091994196
84	0x3db1ccb2	0.08681621
85	0x3e5134a5	0.20430239
86	0x3e1951e0	0.14972639
87	0xbd364ab1	-0.044504825
88	0xbcfd174b	-0.030894896
89	0xbda2af5a	-0.07943602
90	0xbd38cb17	-0.045115557
91	0x3da7de8c	0.08196744
92	0x3dc50c2b	0.096214615
93	0xbda87add	-0.08226559
94	0xbd782204	-0.060579315
95	0xbcf08ed5	-0.029364983
96	0x3d9a6dc4	0.075404674
97	0x3a6e74cd	0.0009096384
98	0x3d8e5ba1	0.069510706
99	0x3db30da5	0.08742837
100	0xbdded61d	-0.108806826
101	0xbe233fec	-0.15942353
102	0x3e19dcb1	0.15025593
103	0x3c784a5e	0.015154449
104	0xbe63b0c0	-0.22235394
105	0x3e33ffdb	0.1757807
106	0x3d99f2e4	0.07517031
107	0xbdc70afc	-0.09718892
108	0xbd842177	-0.064516954
109	0xba5e531b	-0.00084810116
110	0xbdce8175	-0.10083286
111	0xbdccefdb	-0.10006686
112	0x3da47704	0.08030513
113	0x3dcac4e6	0.09900837
114	0xbdc2f42e	-0.0951923
115	0x3dc7f8ee	0.097642764
116	0x3c0f1ec9	0.008735367
117	0xbe143008	-0.14471447
118	0x3cd1106d	0.025520528
119	0x3dc84516	0.09778802
120	0x3e1364c1	0.14393903
121	0x3e0de0fd	0.13855357
122	0x3dab7dfe	0.083736405
123	0xbe3eb220	-0.18622637
124	0xbd2b699c	-0.041848764
125	0xbd901314	-0.07034889
126	0xbdff869b	-0.12476846
127	0xb96d4350	-0.00022627157
128	0xbc148aa9	-0.009066262
129	0x3dfd538f	0.12369453
130	0xbdb2038a	-0.08692081
131	0x3d56a350	0.05240184
132	0x3becf459	0.007231277
133	0xbb9d6da0	-0.004804328
134	0xbe989c76	-0.2980687
135	0xbd640775	-0.055671174
136	0x3e155d4a	0.14586368
137	0x3e2fb687	0.17159472
138	0xbe9cc500	-0.3061905
139	0xbe0fa574	-0.14027959
140	0xbdcf45be	-0.10120724
141	0x3cd96997	0.026539607
142	0x3d1ecb87	0.038768318
143	0xbcf749f1	-0.030186625
144	0x3d8b611e	0.06805633
145	0x3cccbd7d	0.024992699
146	0x3e3915c7	0.18074714
147	0x3dab1ce7	0.08355122
148	0x3d7411d7	0.059587326
149	0x3e1120bf	0.14172648
150	0x3e3ceea5	0.1845041
151	0xbcb01e97	-0.021498961
152	0xbd93066a	-0.07178958
153	0xbc60f41d	-0.013730076
154	0xbe2c0b53	-0.16801195
155	0xbde496f7	-0.11161607
156	0x3d198383	0.037478935
157	0xbe18ecf4	-0.1493414
158	0xbe9bab83	-0.3040429
159	0xbe005e95	-0.1253608
160	0xbe001aae	-0.12510177
161	0x3da98009	0.08276374
162	0xbbfc6f54	-0.007703701
163	0x3e7f467e	0.24929234
164	0xbdbe1a82	-0.092824
165	0xbe3297e8	-0.1744076
166	0x3c660b04	0.014040712
167	0x3e293dfd	0.16527553
168	0x3d9bd062	0.07608105
169	0x3e117c77	0.14207636
170	0xbe5d2a2b	-0.21598117
171	0xbd240a67	-0.040048983
172	0x3e5670ad	0.2094142
173	0xbdb842a2	-0.08997084
174	0xbe0eacb9	-0.13933076
175	0xbe50dacc	-0.20395964
176	0xbddaabdb	-0.1067731
177	0xbe856447	-0.26053068
178	0xbd9cd6c2	-0.07658149
179	0xbc702b5e	-0.014658777
180	0xbb7ffe62	-0.0039061536
181	0xbe383e8e	-0.17992613
182	0xbe9149d4	-0.2837664
183	0xbdf159e9	-0.11784727
184	0x3e4fc591	0.2029021
185	0xbe214603	-0.15749364
186	0x3c22afd9	0.009929621
187	0xbc069dcb	-0.008216332
188	0x3e5d9b9c	0.21641392
189	0xbc19de01	-0.009391309
190	0x3d2e625c	0.04257427
191	0xbd5d4c26	-0.0540277
192	0xbe1c2cb9	-0.15251435
193	0xbe6c4b7c	-0.2307567
194	0x3df45760	0.11930728
195	0x3be3f022	0.0069561163
196	0x3d3e2a91	0.046427313
197	0xbe6dae3a	-0.23210993
198	0x3d9400ec	0.07226738
199	0xbdb34acd	-0.087545015
200	0xbe35e283	-0.17762189
201	0x3c9bc498	0.019014642
202	0x3d82b590	0.063822865
203	0xbe188599	-0.14894713
204	0x3d64f078	0.05589339
205	0x3da55a57	0.080738716
206	0x3d632eab	0.055464428
207	0x3e1831be	0.14862725
208	0xbda2d1a7	-0.07950144
209	0x3e2a3108	0.16620266
210	0xbd2c7d11	-0.04211146
211	0x3d84b63c	0.06480071
212	0xbdb79ad7	-0.0896508
213	0x3dc001fd	0.09375379
214	0xbe2d674d	-0.16933937
215	0xbe92f2f0	-0.28700972
216	0x3e10f448	0.14155686
217	0x3e459dde	0.19298503
218	0x3b052126	0.0020313947
219	0x3d929f99	0.07159347
220	0x3cf36fd2	0.029716406
221	0x3e2ace76	0.16680321
222	0xbe61b2de	-0.22040889
223	0x3d151379	0.036395524
224	0x3d1c74c7	0.038197305
225	0x3dc141cf	0.0943638
226	0x3e40429e	0.18775412
227	0x3e7d96af	0.24764512
228	0xbdcd7d93	-0.10033717
229	0x3e067a2a	0.1313254
230	0x3ddd2947	0.10798889
231	0x3d9b0446	0.075691745
232	0xbddd642b	-0.10810121
233	0x3dcbf3ef	0.09958636
234	0xbddcb114	-0.107759625
235	0x3e61af26	0.2203947
236	0xbd094fd3	-0.033523392
237	0x3d3ce26b	0.046114367
238	0x3d3214b7	0.043476786
239	0xbe1bca0e	-0.15213796
240	0x3e1340ff	0.14380263
241	0x3e38533c	0.18000501
242	0x3dcbc17d	0.09949014
243	0xbdbfa5b8	-0.0935778
244	0xbe05ad70	-0.13054442
245	0xbdc2621f	-0.09491371
246	0xbd2ddaa3	-0.042444836
247	0xbee74dc0	-0.45176506
248	0xbe20b491	-0.1569388
249	0xbe0c1d46	-0.13683042
250	0x3d9b819b	0.0759308
251	0xbe00f94d	-0.125951
252	0xbe09d9fb	-0.13462059
253	0xbdfa90e8	-0.1223467
254	0xbe084171	-0.13306214
255	0xbd7cfb8d	-0.061763335

fc3.bias f4 [10]
0	0xbc609f77	-0.013709894
1	0x3e0f504d	0.13995476
2	0xbd5738df	-0.05254447
3	0xbdde777b	-0.10862633
4	0x3d6fd1b1	0.058549587
5	0xbdbfeea4	-0.09371689
6	0x3dc8f788	0.09812838
7	0xbca172ed	-0.019708121
8	0xbd9a707d	-0.07540987
9	0x3e06f787	0.13180362
