Recognition/checkpoints/secpin_honor_best.pth (torch_old, 179352 bytes, 10 tensors)

conv1.weight f4 [6, 1, 5, 5]
0	0x3e4f0d1b	0.20219843
1	0x3eaf1ca1	0.3420153
2	0x3eb8b71e	0.36077207
3	0x3dd3a30f	0.10333835
4	0x3e85394d	0.2602028
5	0x3e8e6273	0.27809486
6	0x3ed52bc0	0.4163494
7	0x3e61b8da	0.22043172
8	0x3ef4c4d4	0.47806418
9	0x3e5572f9	0.2084464
10	0x3e0c7016	0.13714632
11	0x3ebf769d	0.37395182
12	0x3ea55b73	0.32296333
13	0x3edd3a0b	0.43208346
14	0x3e33c0ca	0.17554012
15	0x3e96c57d	0.29447547
16	0x3e51e084	0.20495802
17	0x3eeefef3	0.46678886
18	0x3ea2190c	0.31659734
19	0x3e7abbe1	0.24485733
20	0x3d90304f	0.07040464
21	0x3ed12acc	0.40852964
22	0x3ea6426e	0.32472557
23	0x3e49cc3d	0.19706817
24	0x3e8b2ef7	0.2718427
25	0xbeb82255	-0.35963693
26	0xbe973bfb	-0.2953795
27	0xbe7c8aa9	-0.2466227
28	0xbe8cda82	-0.27510458
29	0x3d124465	0.035709757
30	0xbe861f15	-0.2619559
31	0xbeb2b239	-0.34901598
32	0xbe9fcd88	-0.31211495
33	0xbe708243	-0.23487191
34	0xbd850458	-0.06494969
35	0xbf0c6385	-0.54839355
36	0xbf0a9187	-0.5412831
37	0xbeb96b6f	-0.36214778
38	0xbe963701	-0.2933884
39	0xbedcef9c	-0.43151557
40	0xbf1cb0ba	-0.61207163
41	0xbf05318b	-0.5202872
42	0xbed07dcb	-0.40720972
43	0xbed8f3dd	-0.42373553
44	0xbde54ed6	-0.111966774
45	0xbeab3976	-0.33442277
46	0xbef6beba	-0.48192388
47	0xbf03fc2f	-0.51556677
48	0xbe4c4bb2	-0.1995075
49	0xbebf0538	-0.3730867
50	0xbe71b9e0	-0.23606062
51	0xbe872a3b	-0.26399407
52	0xbdeef62f	-0.116680495
53	0x3ddaf7d9	0.106918044
54	0x3e367d22	0.17821172
55	0xbee110d1	-0.43958142
56	0xbde971f2	-0.113986865
57	0x3e6e7333	0.23286133
58	0x3eb326ec	0.34990633
59	0x3e9a2cd7	0.30112335
60	0xbeab534c	-0.33461988
61	0xbeacdb08	-0.33760858
62	0xbe3060d4	-0.17224437
63	0x3e649dd3	0.2232583
64	0x3dd0b4a4	0.101907045
65	0xbd8f8244	-0.07007268
66	0xbdea643f	-0.11444902
67	0x3d981cd8	0.074273765
68	0x3b89ec51	0.0042090793
69	0x3ebe25d8	0.37138247
70	0xbe67bde8	-0.22631037
71	0x3abffd0e	0.001464756
72	0xbd71e46b	-0.059055727
73	0x3e1a527e	0.15070531
74	0x3e1a1b13	0.1504939
75	0x3dcae9db	0.09907886
76	0xbd8d6fa2	-0.06906058
77	0xbc41c3ac	-0.011826437
78	0xbdc0d9b6	-0.09416525
79	0xbf1ed450	-0.62042713
80	0x3ee85604	0.45378125
81	0x3e0bbfbd	0.13647361
82	0xbc217fe1	-0.009857149
83	0xbe9fe263	-0.31227407
84	0xbf0bd8ac	-0.5462749
85	0x3ec2cae0	0.38045406
86	0xbd890296	-0.06689946
87	0xbd265f95	-0.040618498
88	0xbe91a737	-0.28447887
89	0xbf0198ae	-0.50623596
90	0x3e9a7048	0.3016379
91	0x3e3c4cd7	0.18388687
92	0x3e440a4d	0.19144554
93	0x3e8745a6	0.26420325
94	0x3d3cb0cf	0.046067055
95	0x3e2d850d	0.16945286
96	0x3e8977cd	0.26849213
97	0x3e84319f	0.25819108
98	0x3db803b2	0.0898508
99	0xbd89ed99	-0.06734771
100	0x3eb2e2bf	0.3493862
101	0x3e95da18	0.29267955
102	0x3ef48af1	0.47762254
103	0x3e464d62	0.19365457
104	0x3e22ad92	0.15886524
105	0x3e6e3e11	0.23265864
106	0x3ea8e8c8	0.32990098
107	0x3e68655d	0.22694917
108	0x3eb6a37a	0.35671598
109	0x3ea1c31d	0.31594172
110	0x3e8cdd57	0.2751262
111	0x3ea74f7b	0.32677826
112	0x3e96f473	0.29483375
113	0x3eb0f2d3	0.3456026
114	0x3e74decd	0.23913117
115	0x3c95d35f	0.018289266
116	0xbddb4290	-0.10706055
117	0x3d5f860b	0.054571193
118	0x3d8a3d38	0.06749958
119	0xbd026ba2	-0.031840928
120	0xbe316eae	-0.17327377
121	0xbe5295d6	-0.2056497
122	0xbe51f637	-0.2050408
123	0xbd860fac	-0.06545958
124	0x3e18d1cc	0.14923781
125	0x3db19512	0.08671011
126	0x3e820818	0.253968
127	0x3e5a401e	0.21313521
128	0x3ca7fd51	0.020506533
129	0xbe743dbc	-0.23851675
130	0x3e88628d	0.26637688
131	0x3cd6ae73	0.02620623
132	0xbd7de160	-0.061982512
133	0xbd5416e0	-0.051779628
134	0xbef04f01	-0.46935275
135	0x3e930a41	0.2871876
136	0x3e3d5e53	0.18493013
137	0x3c6c6eaa	0.014430681
138	0xbc39fad5	-0.011351307
139	0xbed7ed71	-0.4217334
140	0x3b88ad94	0.0041710827
141	0x3d64ecc9	0.05588988
142	0xbd085383	-0.033282768
143	0xbec04550	-0.3755288
144	0xbead2854	-0.3381983
145	0x3efb2148	0.4904883
146	0x3d9b456e	0.07581602
147	0x3d5703fc	0.052494034
148	0xbde59ab5	-0.11211149
149	0xbedfdc03	-0.43722543

conv1.bias f4 [6]
0	0xbd9e1ed7	-0.07720726
1	0xbd142d13	-0.0361758
2	0x3efa61ee	0.4890284
3	0x3e6763b1	0.22596623
4	0x3e288d44	0.16460139
5	0x3edb4f8b	0.42834124

conv2.weight f4 [16, 6, 5, 5]
0	0x3d91b893	0.07115283
1	0x3d89ff2c	0.06738123
2	0x3dcdcb5a	0.10048552
3	0x3da14235	0.07873956
4	0xbc4c91bf	-0.01248592
5	0x3d3fd63c	0.04683517
6	0x3dadf5a9	0.084941216
7	0xbcac8972	-0.021061633
8	0xbcbd89f7	-0.023137076
9	0xbbdfbdbc	-0.006828038
10	0x3d9eee53	0.077603005
11	0xbd4659c3	-0.048425447
12	0xbdf0e632	-0.11762656
13	0x3c83f94a	0.016110081
14	0x3de90ff7	0.11379998
15	0xbdb8fd18	-0.09032649
16	0xbe0639a6	-0.13107929
17	0xbd8ef4e2	-0.069803014
18	0xbde19f30	-0.11016691
19	0x3cdd0429	0.026979523
20	0xbe1438ab	-0.14474742
21	0xbe455e33	-0.19274215
22	0xbdefc2de	-0.1170709
23	0x3d00e3b9	0.031467173
24	0x3dd3a7de	0.103347525
25	0xbdacf999	-0.084460445
26	0xbd8d721c	-0.0690653
27	0xbddf1668	-0.108929455
28	0xbe0b97c4	-0.13632113
29	0xbd3c2fd3	-0.045944046
30	0xbde784d3	-0.11304631
31	0xbdecfd54	-0.11571756
32	0xbd40ff6b	-0.047118586
33	0xbdd0d7a4	-0.1019738
34	0xbdb542ca	-0.0885063
35	0xbd198044	-0.03747584
36	0xbb7a5315	-0.0038196493
37	0x3d65251f	0.055943605
38	0xbc73887b	-0.014864082
39	0x3c9f8d2e	0.0194765
40	0x3d582d19	0.052777383
41	0x3c7bf140	0.015377343
42	0x3d08530e	0.033282332
43	0x3e064fdf	0.13116406
44	0xbd5dbf0e	-0.054137282
45	0x3e3e3942	0.1857653
46	0x3e320d58	0.17387903
47	0x3dfceb14	0.12349525
48	0x3e23e762	0.16006234
49	0xbd2bbe89	-0.041929755
50	0x3cdbf114	0.026848353
51	0xbdd1f83a	-0.102524236
52	0xbdc03406	-0.09384923
53	0xbeaaa8e9	-0.33331993
54	0xbea183c8	-0.31545854
55	0x3cb09190	0.021553785
56	0xbd90c1ac	-0.0706819
57	0xbd0713ba	-0.032977797
58	0x3cfae503	0.03062678
59	0xbda6a620	-0.081371546
60	0xbd1622e1	-0.036654357
61	0xbdc9bd1f	-0.09850525
62	0x3dcd83e1	0.100349195
63	0x3e031d5c	0.12804168
64	0x3e28ff6b	0.16503684
65	0x3d78c258	0.060732216
66	0x3d955762	0.072920576
67	0x3dc3a8b8	0.09553665
68	0x3dad7c06	0.08470921
69	0x3e5cc4b3	0.2155941
70	0xbc8ec2e1	-0.01742691
71	0x3cebc1f1	0.028779002
72	0x3c636e26	0.013881242
73	0x3d692a6f	0.056925233
74	0x3e58b785	0.21163757
75	0x3d5ab4f1	0.053395215
76	0x3df975e3	0.12180688
77	0x3dc6f222	0.09714152
78	0x3e02c360	0.12769842
79	0x3e9dead9	0.30843237
80	0xbdbbd745	-0.09171919
81	0x3d83b363	0.064307
82	0x3c33487f	0.010942577
83	0x3e161171	0.14655091
84	0x3e16e94c	0.14737433
85	0x3d644e95	0.055739004
86	0xbb95da4c	-0.004573142
87	0xbce08c43	-0.027410632
88	0xbd804fd6	-0.062652275
89	0xbdc8bc12	-0.098014966
90	0xbd85fb88	-0.065421164
91	0x3b96df6e	0.0046042716
92	0xbdceea8d	-0.10103331
93	0xbd3910bd	-0.04518198
94	0xbe570cfd	-0.21001048
95	0xbde431db	-0.11142322
96	0xbe42702a	-0.189881
97	0xbe164dab	-0.14678065
98	0xbe10243e	-0.14076325
99	0x3d645754	0.055747345
100	0x3da315e7	0.07963162
101	0x3d9cdc1e	0.076591715
102	0x3ddd5ff7	0.108093195
103	0x3de1314a	0.10995729
104	0xbdbdbe38	-0.09264797
105	0x3da72586	0.08161454
106	0x3e049246	0.12946424
107	0x3d38db77	0.045131173
108	0xbd0e0489	-0.034672294
109	0xbd853c1f	-0.06505608
110	0x3c8ae5bd	0.01695525
111	0xbb4939dd	-0.0030704655
112	0x3c9cfe51	0.019164236
113	0xbdfebaae	-0.1243795
114	0x3d7bc7b0	0.061469734
115	0x3da6732a	0.081274346
116	0xbd2650b3	-0.040604305
117	0xbbb76f3c	-0.005597977
118	0xbc86eef2	-0.01647136
119	0x3b33d1de	0.0027438323
120	0xbc195754	-0.0093592
121	0xbe073dc0	-0.1320715
122	0x3a81d686	0.0009905852
123	0xbd4b1b62	-0.04958666
124	0xbd4291c4	-0.047502294
125	0xbd689352	-0.05678112
126	0xbc578e16	-0.0131564345
127	0x3d64fa26	0.055902623
128	0x3e1fd041	0.15606786
129	0x3e20b85e	0.1569533
130	0xbb3fd488	-0.0029270966
131	0x3d9cdb8a	0.07659061
132	0x3cf97e20	0.030455649
133	0x3da3d9c0	0.08000517
134	0xbd6bec98	-0.05759868
135	0x3dca16fc	0.09867665
136	0x3e424dc3	0.18974976
137	0x3dfdb3fb	0.12387844
138	0xbce43d82	-0.02786136
139	0xbe279a1d	-0.16367383
140	0x3d8ce8a2	0.06880309
141	0x3df07156	0.11740367
142	0xbc902ffd	-0.017601008
143	0xba86d3cf	-0.0010286513
144	0xbe24c8b0	-0.16092181
145	0x3e197937	0.14987646
146	0xbc4d38e6	-0.012525773
147	0x3d20e912	0.039284773
148	0xbe2c989d	-0.16855092
149	0xbe7aa69f	-0.24477623
150	0x3d3a1103	0.04542638
151	0xbd3acb77	-0.045604195
152	0xbd92fc76	-0.07177059
153	0x3d5256da	0.05135236
154	0x3e10fd45	0.14159115
155	0xbb999f09	-0.004688148
156	0x3d0a566b	0.03377382
157	0xbdb2dc93	-0.087334774
158	0xb77d678c	-1.5104084e-05
159	0xbafcae3e	-0.0019278002
160	0xbd009293	-0.031389784
161	0x3da60ab9	0.08107514
162	0x3c4fd40d	0.012684834
163	0xbdb739c0	-0.08946562
164	0x3c05df9c	0.008170988
165	0x3da28ff0	0.0793761
166	0x3d95ed4c	0.073206514
167	0xbd51083f	-0.051033255
168	0x3d998b30	0.07497251
169	0x3ce07d59	0.02740352
170	0x3da31896	0.07963674
171	0xbd8d45a2	-0.06898047
172	0xbd5a36a6	-0.053274773
173	0xbd0b933e	-0.034075968
174	0xbd84b0bb	-0.06479021
175	0x3db84f15	0.08999459
176	0x3cc7886e	0.024357047
177	0xbc530138	-0.012878709
178	0x3d2d74b4	0.042347625
179	0x3c9b38ce	0.018947985
180	0xbda09fb5	-0.07842962
181	0xbc5b7817	-0.013395331
182	0x3db9a2b9	0.0906424
183	0x3d94a906	0.07258801
184	0x3cad5e26	0.021163058
185	0xbdf2e86a	-0.11860736
186	0x3d8fdd62	0.07024647
187	0x3df8aa68	0.121418774
188	0x3db32b5b	0.08748504
189	0x3c8f2375	0.017472962
190	0xbe37f16a	-0.17963186
191	0xbd3ef144	-0.046616808
192	0xbc8ee873	-0.017444825
193	0xbcb95a45	-0.022626052
194	0xba1fe27f	-0.0006099119
195	0xbde015a1	-0.109416254
196	0x3a9fd2c9	0.0012193556
197	0x3b4263f5	0.002966163
198	0x3b5af691	0.0033411125
199	0xbd9dec1a	-0.077110484
200	0xbdd7748a	-0.10520275
201	0xbdb0aca8	-0.086266816
202	0x3dc7e7f4	0.097610384
203	0x3d6de579	0.05808017
204	0x3e475997	0.1946777
205	0xbe2c1a56	-0.16806921
206	0xbdc64e8f	-0.096829526
207	0x3dfbe6b6	0.12299864
208	0x3e07ce2e	0.13262245
209	0x3e5df3e6	0.21675071
210	0xbe94ed7a	-0.2908743
211	0xbd2865c2	-0.04111267
212	0x3d6328ca	0.05545882
213	0x3e1b8aaf	0.15189622
214	0x3de817ba	0.113326505
215	0xbedc77b9	-0.4306009
216	0xbe55c3d3	-0.20875482
217	0x3d97ae29	0.07406265
218	0x3e0dd02d	0.13848944
219	0x3d226533	0.039647292
220	0xbec80a30	-0.39070272
221	0xbdd7319e	-0.105075106
222	0x3d6c8204	0.05774118
223	0x3e0410e2	0.12897065
224	0xbc8edacf	-0.01743832
225	0xbd943c26	-0.07238035
226	0x3cd2cca7	0.025732351
227	0xbe10eb8c	-0.14152354
228	0x3c343112	0.010998027
229	0xbd7979ed	-0.060907293
230	0x3e18cd0a	0.14921966
231	0xbbd3457f	-0.0064474936
232	0xbdb5b579	-0.08872504
233	0xbd0854c6	-0.03328397
234	0xbd1828d7	-0.037148323
235	0x3e063b4f	0.13108562
236	0x3dfc9572	0.12333192
237	0xbd0a7c5f	-0.033810016
238	0x3de42857	0.11140507
239	0x3dfae41b	0.12250539
240	0x3e474dd6	0.19463286
241	0x3e27f941	0.16403677
242	0xbd448784	-0.0479808
243	0x3dc074b9	0.09397263
244	0x3e2722e1	0.16321899
245	0x3cb74f74	0.022376753
246	0xbc79a8cd	-0.015237999
247	0xbc7ad4d3	-0.01530953
248	0xbda5d178	-0.080965936
249	0xbd609946	-0.054833673
250	0x3e0064ca	0.12538448
251	0x3b7b44ed	0.0038340644
252	0x3d7950a3	0.060867917
253	0x3cef0387	0.029176487
254	0x3dd37141	0.10324336
255	0xbd16b756	-0.036795937

conv2.bias f4 [16]
0	0xbc05df11	-0.008170859
1	0x3c9f94b3	0.019480085
2	0xbb6f22e1	-0.0036489295
3	0x3dd914ed	0.105996944
4	0xbc614682	-0.0137497205
5	0x3d7140a1	0.058899526
6	0xbcf739aa	-0.030178864
7	0x3e0f7a6b	0.14011542
8	0xbdc5138e	-0.096228704
9	0xbd0fd3c4	-0.035114065
10	0x3e08b0cd	0.13348694
11	0xb9d53856	-0.000406685
12	0xbda0bbc2	-0.07848312
13	0x3d977172	0.07394685
14	0x3d8ddd2e	0.06926952
15	0xbd44b823	-0.04802717

fc1.weight f4 [120, 256]
0	0x3cde5b73	0.027143216
1	0xbd6a9cbd	-0.057278384
2	0xbd39a3a4	-0.045322075
3	0xbd8015c5	-0.06254152
4	0xbcdedf72	-0.027206156
5	0x3bda736d	0.006666592
6	0xbc4aad4a	-0.012370417
7	0x3d346845	0.04404475
8	0xbd17f35d	-0.037097324
9	0xbc25702f	-0.010097547
10	0xbd06c7cb	-0.03290538
11	0x3d2d5cea	0.042324938
12	0xbd553362	-0.052050956
13	0xbd354d49	-0.044263158
14	0x3a90e538	0.0011054641
15	0x3b66caba	0.003521605
16	0x3a825538	0.000994361
17	0x3d3e561b	0.046468835
18	0xbd6c5e6e	-0.057707243
19	0xbcda999a	-0.026684571
20	0xbd6dcb0b	-0.058054965
21	0xbd85e3b2	-0.0653757
22	0x3bb809fb	0.005616424
23	0xbd0b03d2	-0.03393919
24	0xbd58a9cf	-0.052896317
25	0xbd32458f	-0.043523367
26	0x3c165465	0.009175395
27	0x3d024baf	0.03181046
28	0x3d55bc28	0.052181393
29	0x3d5e8030	0.054321468
30	0xbc96fed6	-0.018432062
31	0x3d4f4a44	0.050607935
32	0x3a8ae315	0.001059624
33	0x3d5e0e89	0.05421308
34	0x3d1b3768	0.037894636
35	0xbd0f4bd5	-0.03498443
36	0x3b46c8b8	0.003033204
37	0xbd45a9cb	-0.04825763
38	0xbc679623	-0.0141349165
39	0xbd5770bd	-0.05259775
40	0xbcb4c9ea	-0.022068936
41	0x3cae0a30	0.021245092
42	0x3d0df8e6	0.034661196
43	0xbd8351d3	-0.06412091
44	0x3cfcb3f5	0.030847529
45	0x3a80cad3	0.0009826071
46	0xbd7f10e6	-0.062271975
47	0x3cbc62ba	0.022996295
48	0xbc214f7d	-0.009845612
49	0x3cdd51ab	0.027016481
50	0xbd68563a	-0.056722857
51	0xbc592289	-0.013252863
52	0xbc37c9ea	-0.011217574
53	0x3cc5c90c	0.024143718
54	0x3d683479	0.056690667
55	0xbd3517e1	-0.044212226
56	0x3cba8e3c	0.0227729
57	0x3d52b6b0	0.051443756
58	0xbd4f08a2	-0.050545342
59	0xbd1eb651	-0.03874809
60	0x3d39133f	0.04518437
61	0xbd6028a9	-0.054726277
62	0xbd2ab62d	-0.041677643
63	0x3af31f2c	0.0018548719
64	0xbcb41bf6	-0.021985989
65	0x3d60b8cd	0.05486374
66	0x3cfb2b1f	0.03066021
67	0xbd309dff	-0.043119427
68	0xbd7d6a9f	-0.06186926
69	0x3d534e02	0.051588066
70	0x3d138869	0.036018763
71	0x3b63488f	0.00346807
72	0xbd6e7f03	-0.058226597
73	0xbd3d63a5	-0.046237607
74	0x3c874047	0.016510142
75	0xbc1b2720	-0.009469777
76	0xbbfa3ea8	-0.0076368637
77	0xbc9bca5d	-0.019017393
78	0xbc879022	-0.01654822
79	0xbab41d5e	-0.0013741662
80	0xbd242eb5	-0.040083606
81	0xbd7c6953	-0.061623883
82	0xbc117c70	-0.008879766
83	0xbd5bf01a	-0.053695776
84	0x3d5a84fd	0.053349484
85	0xbd8e8ef3	-0.06960859
86	0x3d43c3ac	0.04779403
87	0x3d1830fe	0.037156098
88	0xbcd64113	-0.026154077
89	0xbc6eae3f	-0.014567911
90	0x3d37a284	0.04483272
91	0xbd32acb5	-0.043621738
92	0x3cbbbb4c	0.022916459
93	0xbc018854	-0.007906038
94	0xbc15da96	-0.009146353
95	0x3cc289fc	0.023747437
96	0xbd1613e9	-0.03664008
97	0xbd763473	-0.060108613
98	0xbc0efd42	-0.008727374
99	0xbcfd35ad	-0.030909384
100	0xbc878cd8	-0.016546652
101	0xbd3d3f63	-0.04620303
102	0xbd13f6da	-0.036124088
103	0x3d7829e8	0.06058684
104	0x3c56efc7	0.013118691
105	0xbcd2bc59	-0.025724577
106	0x3c893c54	0.0167524
107	0x3c5550af	0.013019725
108	0x3c8bfac9	0.017087357
109	0xbd2d6aec	-0.042338297
110	0xbd3003d0	-0.042972386
111	0xbcc0a111	-0.023514302
112	0x3b851b74	0.0040621106
113	0xbc8353d1	-0.016031178
114	0x3d1d6a68	0.038431555
115	0x3c451bfe	0.0120306
116	0x3cb73f29	0.022368984
117	0xbd388a9f	-0.045054074
118	0xbd0a9f55	-0.033843357
119	0xbd2269c6	-0.039651655
120	0x3c13f9aa	0.0090316925
121	0x3ca0d4ae	0.019632664
122	0xbd6ef035	-0.058334548
123	0x3d580f29	0.052748833
124	0xbd5a67a5	-0.0533215
125	0x3d34109e	0.04396116
126	0x3cd19566	0.025583934
127	0xbcb8aec6	-0.022544276
128	0x3ce63505	0.028101454
129	0xbd467cfd	-0.048459042
130	0x3d2f6b99	0.042827222
131	0xbd241dbd	-0.040067423
132	0xbc7d5d9b	-0.015464212
133	0x3caca696	0.021075528
134	0xbd7ae161	-0.061250094
135	0x3d3678ac	0.044548675
136	0x3d1d6bb2	0.038432784
137	0x3bb1f657	0.0054309773
138	0xbd2b6393	-0.04184301
139	0xbc16b19a	-0.009197617
140	0x3c41928c	0.011814725
141	0x3c6c4417	0.014420531
142	0xbc7799ab	-0.015112321
143	0xbc260bbe	-0.0101346355
144	0xbd3ae6d8	-0.045630306
145	0xbd08956d	-0.03334563
146	0x3d3e8f39	0.046523307
147	0xbd2f78c6	-0.042839788
148	0xbd6e592f	-0.05819052
149	0x3ca84785	0.020541916
150	0x3d0749e1	0.03302944
151	0xbd6be8d0	-0.057595074
152	0xbc765855	-0.015035708
153	0x3d6d3367	0.05791035
154	0x3d2fb81e	0.042900197
155	0xbc1e0b83	-0.009646299
156	0xbc5e76ad	-0.013578099
157	0xbd494732	-0.049140163
158	0xbd252148	-0.040314943
159	0x3d1802ad	0.037111927
160	0xbd6e3a62	-0.058161147
161	0xbcf5067f	-0.029910324
162	0xbd822ce4	-0.063562185
163	0x3d35593a	0.044274546
164	0xbcc5e136	-0.02415524
165	0x3b9e93dc	0.0048394036
166	0x3cc3bab3	0.023892736
167	0xbcea4e70	-0.028601855
168	0xbd4d043f	-0.050052878
169	0xbc86f635	-0.016474823
170	0xbd2b3bdf	-0.041805144
171	0xbd2d2b8e	-0.042277865
172	0x3d2187f6	0.039436303
173	0x3d5aa9dd	0.05338465
174	0xbd7948b0	-0.060860336
175	0xbd291d6b	-0.04128782
176	0xbd0c69ed	-0.034280706
177	0x3c274454	0.010209162
178	0xbcbc1c3b	-0.02296268
179	0xbcc553a6	-0.024087738
180	0xbd2d1b7e	-0.042262547
181	0xbb3c1829	-0.0028700924
182	0x3d4a68d0	0.049416363
183	0xbca2b50d	-0.019861722
184	0xbd8eeb53	-0.06978478
185	0x3ce12afd	0.027486319
186	0xbd47a57b	-0.0487418
187	0xbd13cb86	-0.036082767
188	0xbd4ed1e8	-0.05049315
189	0xbd1919a7	-0.03737798
190	0xbc43b566	-0.011945104
191	0xbd35ae52	-0.044355698
192	0xbd75204b	-0.05984525
193	0xbcf0e267	-0.029404832
194	0xbcfde33b	-0.030992141
195	0x3cc8aecb	0.02449741
196	0xbbd1c23f	-0.0064013298
197	0xbcc274ec	-0.023737393
198	0x3bb7cacb	0.0056088916
199	0xbaa449ed	-0.0012534239
200	0xbcc3c952	-0.023899708
201	0xbcdae5f6	-0.026720982
202	0xbd7b4ae2	-0.06135071
203	0xbd56dbda	-0.05245576
204	0xbd468849	-0.048469815
205	0xbb9047ce	-0.004403091
206	0x3a1ba04c	0.0005936667
207	0xbd431b66	-0.04763355
208	0xbcf266bc	-0.029590003
209	0xbd1ad54e	-0.03780108
210	0xbcc24dee	-0.0237188
211	0xbbf444af	-0.007454477
212	0xbd52f7b5	-0.051505763
213	0x3d347262	0.044054396
214	0x3ccf650e	0.025316741
215	0x3d62f64e	0.055410676
216	0xba6819e3	-0.0008853955
217	0xbd658559	-0.056035373
218	0xbb621c03	-0.003450156
219	0xbc15c1c2	-0.009140434
220	0x3d7db319	0.06193838
221	0xb8d0f5ba	-9.963983e-05
222	0x3d4fd179	0.050736878
223	0xbc719dc8	-0.014747091
224	0x3d3d022d	0.046144653
225	0x3b7cc35e	0.0038568596
226	0x3d5d7cc6	0.05407407
227	0x3d6d7153	0.057969403
228	0x3c9ac9d7	0.018895073
229	0x3d632039	0.05545065
230	0xbcbce2ef	-0.02305743
231	0xbd0a2362	-0.03372515
232	0x3cf97726	0.030452322
233	0xbd0a9a55	-0.03383859
234	0xbd7d7b70	-0.061885297
235	0xbd162c79	-0.036663506
236	0xbd33e646	-0.043920778
237	0xbb4ef5ec	-0.0031579686
238	0x3a893b86	0.001047001
239	0x3d478cdc	0.04871832
240	0x3d72f2ec	0.0593137
241	0x3d22dc71	0.03976101
242	0xbd52f066	-0.051498793
243	0xbd1df398	-0.038562387
244	0x3d417342	0.04722906
245	0xbc844b72	-0.016149256
246	0xbd4ab600	-0.049489975
247	0x3bbce6f5	0.005764837
248	0x3afb1108	0.0019154856
249	0xbc7a8068	-0.0152894035
250	0x3d1259ac	0.03573005
251	0xbd17fab6	-0.03710433
252	0x3c82e57e	0.015978571
253	0x3c32fb4e	0.0109241735
254	0x3c74d95a	0.014944399
255	0x3d1021da	0.035188533

fc1.bias f4 [120]
0	0xbd082919	-0.03324232
1	0x3da2e0ea	0.07953055
2	0x3d655134	0.055985644
3	0xbc0a6261	-0.008446307
4	0x3c87f37d	0.016595596
5	0x3dc8989a	0.097947314
6	0xbc63db23	-0.013907227
7	0xbc567d3b	-0.013091381
8	0x3daebac3	0.08531716
9	0x3d970587	0.07374101
10	0x3d1f9234	0.03895779
11	0x3d943165	0.07235984
12	0x3d0d5af4	0.034510568
13	0xbd3b34ff	-0.045704838
14	0xbd878adf	-0.066182844
15	0x3d3dfdeb	0.046384733
16	0xbd08e840	-0.033424616
17	0xbdb2d380	-0.08731747
18	0x39b5807b	0.00034618736
19	0x3d0dab2b	0.034587067
20	0xbcb4f509	-0.022089498
21	0xbd5d2ca3	-0.053997647
22	0x3d0d51fc	0.034502015
23	0xbd531311	-0.051531855
24	0x3c3fda0a	0.011709699
25	0xbcf4625d	-0.02983206
26	0xbd7d90cf	-0.06190568
27	0x3bcc3748	0.006232176
28	0xbbdfd466	-0.00683074
29	0xbbb31dba	-0.00546619
30	0x3d9684bf	0.07349538
31	0x3c535d7d	0.012900707
32	0x3c38ed18	0.011286996
33	0xbd129a02	-0.035791405
34	0xbd868974	-0.06569186
35	0x3bdd2ab9	0.0067494777
36	0xbaf88600	-0.0018960834
37	0xbdbb3489	-0.0914088
38	0x3d4cd0b1	0.05000371
39	0xbdc099d2	-0.09404339
40	0xbd306d1d	-0.04307281
41	0x3dfd6683	0.12373068
42	0xbd339c50	-0.043850243
43	0x3d380e1c	0.04493533
44	0xbcd1dde9	-0.02561851
45	0xbc63a479	-0.013894194
46	0xbd7d4d69	-0.061841402
47	0xbe1187cf	-0.14211963
48	0x3dc2fada	0.095205024
49	0xb99a7c25	-0.00029465664
50	0x3ca38ade	0.019963678
51	0xbc269929	-0.010168352
52	0xbd330e69	-0.043714914
53	0x3de67ecf	0.112546556
54	0xbc034f2e	-0.008014483
55	0xbc84d760	-0.01621598
56	0x3dce9d07	0.10088544
57	0xbd3d1585	-0.0461631
58	0x3b7a9df6	0.0038241125
59	0xbd6a48f0	-0.057198465
60	0xbe080d71	-0.13286377
61	0xbd547041	-0.051864866
62	0x3d1d7f62	0.03845156
63	0x3defba6a	0.117054775
64	0x3d2c47af	0.04206055
65	0x3d853ee4	0.06506136
66	0x3b901ff2	0.0043983394
67	0x3bacc8d1	0.0052729626
68	0xbd80d557	-0.06290691
69	0x3d2615d1	0.04054815
70	0x3d8c4aa6	0.068501756
71	0x3db05044	0.086090595
72	0x3bcdecdb	0.006284339
73	0xbcda6fe7	-0.026664687
74	0xbd87125e	-0.065953
75	0x3cbe7c82	0.02325273
76	0x3c31018d	0.010803592
77	0x3da1ec12	0.07906355
78	0x3d6c907a	0.05775497
79	0xbbf62463	-0.007511662
80	0x3cbddcf8	0.023176655
81	0x3d1f4c7f	0.03889131
82	0xbbfc0073	-0.0076904832
83	0xbdda3cc4	-0.106561214
84	0x3d582d8f	0.052777823
85	0xbda3d22c	-0.079990715
86	0x3c70a689	0.014688143
87	0xbb402a3b	-0.0029322046
88	0xbd8fbf9a	-0.07018967
89	0x3ce09071	0.027412625
90	0xbce31d82	-0.027724031
91	0x3bdadee7	0.006679404
92	0x3d4c4b77	0.049876656
93	0xbd128aef	-0.03577703
94	0x3daf6c87	0.08565622
95	0x3c966335	0.018357852
96	0x3d1c54b2	0.03816671
97	0x3e0842ce	0.13306734
98	0xbc041b2b	-0.008063118
99	0x3d820101	0.06347848
100	0x3dd8df5f	0.1058948
101	0xbd89fc8f	-0.06737625
102	0x3c9bf573	0.019037938
103	0x3b43b255	0.0029860933
104	0x3d4f207b	0.050568085
105	0xbc1bd946	-0.009512251
106	0x3c05598d	0.008139026
107	0xbd606ac1	-0.05478931
108	0xbd26ffc1	-0.04077125
109	0xba62d055	-0.000865226
110	0x3d70fc9d	0.05883466
111	0x3d42ebb0	0.04758805
112	0x3dcf2e35	0.10116235
113	0xba62e070	-0.00086546596
114	0xbd0ef62c	-0.034902737
115	0xbd263fc9	-0.040588174
116	0xbd4e6b48	-0.05039528
117	0x3d37fc89	0.04491857
118	0x3d828091	0.06372178
119	0x3d6cf8ac	0.05785434

fc2.weight f4 [84, 120]
0	0x3c1a7ec3	0.009429636
1	0xbd276ca4	-0.040875092
2	0xbda0e46e	-0.078560695
3	0x3d9b752b	0.075907074
4	0xbd14cd84	-0.036328807
5	0x3df50fa0	0.11965871
6	0x3e3a0522	0.1816602
7	0xbc94de16	-0.018172305
8	0x3d1e0638	0.03858015
9	0xbd8df937	-0.069322996
10	0xbe274813	-0.16336088
11	0x3d8f07d5	0.06983916
12	0xbd8e4049	-0.06945855
13	0xbd8ce81e	-0.0688021
14	0x3df9c750	0.12196219
15	0x3e1e1c65	0.15440519
16	0xbd4cbdd7	-0.049985733
17	0x3cfe387d	0.031032795
18	0xbda95912	-0.08268942
19	0xbc3b3a88	-0.011427529
20	0x3dfd3b6f	0.12364852
21	0x3d72d73e	0.059287302
22	0xbd2e53bd	-0.042560328
23	0x3db90526	0.09034185
24	0xbd4315b8	-0.047628134
25	0x3d957766	0.07298164
26	0xbd97c574	-0.07410708
27	0x3e921ac0	0.28536034
28	0xbe23385c	-0.15939468
29	0xbd098586	-0.033574603
30	0xbc274a26	-0.010210549
31	0xbca3317c	-0.019921057
32	0x3d80a6e3	0.06281831
33	0xbd101a15	-0.035181124
34	0x3d9dce38	0.07705349
35	0x3e16afc6	0.1471549
36	0xbe4ff5e1	-0.20308639
37	0xbdcb84ee	-0.09937464
38	0x3b249040	0.0025110394
39	0xbcfce94c	-0.030872963
40	0xbe4637b4	-0.19357187
41	0x3d3d0860	0.046150565
42	0xbd536c57	-0.051616993
43	0x3d4facc6	0.05070188
44	0xbe01cdc3	-0.12676148
45	0xbdbddc61	-0.092705496
46	0x3cfc34b8	0.030786857
47	0xbd1f7444	-0.03892924
48	0xbbe18d41	-0.006883294
49	0xbdee9973	-0.11650362
50	0xbe4c05a2	-0.19924024
51	0xbd05609a	-0.03256283
52	0xb9bcee00	-0.00036035478
53	0x3dd0d4f0	0.101968646
54	0xbe627ce7	-0.22117959
55	0xbc7fc710	-0.015611425
56	0x3da2179a	0.07914658
57	0xbe023ce8	-0.12718546
58	0xbdaf9f43	-0.08575299
59	0xbdb20128	-0.08691627
60	0x3dac6d3e	0.08419274
61	0x3d5b6688	0.05356458
62	0xbc84d53d	-0.016214961
63	0x3adb41de	0.0016728004
64	0x3e0f81e8	0.14014399
65	0x3daf046c	0.08545765
66	0xbc82621f	-0.015915928
67	0xbd30c25d	-0.04315411
68	0xbbaad3d4	-0.00521324
69	0xbd83de4e	-0.06438886
70	0xbd43466d	-0.047674585
71	0x3e44aed1	0.19207312
72	0x3c71b34d	0.014752221
73	0xbdd99d4a	-0.10625704
74	0xbd6eb546	-0.058278345
75	0x3d68efae	0.0568692
76	0x3dbc7847	0.092026286
77	0xbd5e28d9	-0.054238174
78	0x3dc0b939	0.094103284
79	0xbbdf4c65	-0.006814527
80	0x3d30dbef	0.043178495
81	0xbd54fa21	-0.051996354
82	0x3c10e032	0.008842515
83	0xbe1ebe15	-0.15502198
84	0xbbfa516a	-0.0076391
85	0x3da1597b	0.07878395
86	0x3dc3d36b	0.09561809
87	0x3da3b7ee	0.07994066
88	0xbb51f67b	-0.0032037783
89	0xbc8c10d2	-0.017097864
90	0x3b88bc20	0.004172817
91	0x3d0f45c7	0.034978654
92	0x3d84fa8b	0.064931
93	0xbdc3a35e	-0.09552644
94	0x3c7c18e7	0.015386797
95	0xbe28e991	-0.16495349
96	0xbd917281	-0.07101918
97	0x3da351a4	0.07974556
98	0x3d7bd888	0.061485797
99	0xbce02ae9	-0.027364211
100	0xbd7aba6a	-0.061212935
101	0x3daa8dfd	0.08327863
102	0xbc7ebd7d	-0.015548107
103	0x3d76d8a8	0.060265213
104	0x3d4e10da	0.05030904
105	0x3dce96ce	0.100873575
106	0xbe262e1b	-0.16228525
107	0xbd580547	-0.052739408
108	0xbe2d2f21	-0.1691251
109	0x3d9384ab	0.07203039
110	0x3d6b9b48	0.057521135
111	0x3d28041e	0.04101955
112	0x3dda963b	0.106731854
113	0xbe2275bf	-0.15865229
114	0x3d99eb09	0.075155325
115	0x3d786da8	0.06065145
116	0x3ddab6b0	0.10679376
117	0x3da51d24	0.08062199
118	0xbe1585b8	-0.14601791
119	0xbdae8196	-0.0852081
120	0x3d3df7dc	0.046378955
121	0x3e0d9a18	0.13828313
122	0x3d3b08c5	0.04566266
123	0xbdb85fc0	-0.09002638
124	0xbc14376a	-0.009046415
125	0x3d902c2b	0.07039674
126	0x3d9f2df2	0.07772435
127	0x3dfd84fd	0.12378881
128	0x3e8311e6	0.25599593
129	0xbd6cc185	-0.057801742
130	0x3d9414ff	0.07230567
131	0xbdef252f	-0.11677014
132	0x3c960d1d	0.0183168
133	0x3d86df15	0.06585518
134	0xbe274d92	-0.16338184
135	0xbd649673	-0.055807542
136	0x3dbca488	0.09211069
137	0x3cc45088	0.023964182
138	0x3ca4979f	0.02009183
139	0xbe9e4ac0	-0.30916405
140	0x3e635f4e	0.22204325
141	0xbc70613a	-0.014671618
142	0x3e0acade	0.1355395
143	0x3e7abdc9	0.2448646
144	0xbc4c7e05	-0.012481217
145	0xbdc9591e	-0.09831451
146	0x3d8e26b0	0.06940973
147	0xbd88877d	-0.06666467
148	0xbd92ef6e	-0.07174574
149	0x3ce981f4	0.02850435
150	0x3db1d718	0.08683604
151	0xbca14aa1	-0.019688906
152	0x3d5f2131	0.054475013
153	0x3c5e30f0	0.013561472
154	0xbd6e0b54	-0.058116272
155	0xbd2ef7ec	-0.042716905
156	0x3d2dea97	0.04246005
157	0xbd55a30e	-0.052157454
158	0xbca11b5e	-0.01966637
159	0x3c8641af	0.016388742
160	0xbd5d1452	-0.053974457
161	0x3d9bb7df	0.0760343
162	0xbd45071c	-0.048102483
163	0xbd60a954	-0.054848984
164	0x3d1b8cb5	0.037975986
165	0xbe1a9743	-0.15096764
166	0x3a06c1ca	0.0005140571
167	0xbd94060f	-0.07227718
168	0xbae553c1	-0.0017496274
169	0xbdc19909	-0.09453017
170	0x3df30a1d	0.11867163
171	0xbdd01eff	-0.10162162
172	0x3d25ddfe	0.04049491
173	0x3e3d5a03	0.18491368
174	0xbc96c068	-0.018402293
175	0x3db722e3	0.08942201
176	0xbd9e29b4	-0.07722798
177	0xbc60cc60	-0.013720602
178	0x3da3e838	0.080032766
179	0xbd53c620	-0.05170262
180	0x3e3162db	0.17322867
181	0xbe0bfca3	-0.13670592
182	0x3c81d896	0.015850347
183	0x3d66276b	0.056189936
184	0x3d7ea924	0.062173024
185	0xbd872a19	-0.06599826
186	0xbe7cf33c	-0.24702162
187	0xbcab78e0	-0.020931661
188	0xbe5a177b	-0.2129802
189	0xbd8e6f56	-0.069548294
190	0x3d4738b3	0.048638057
191	0xbd0f85ca	-0.0350397
192	0xbd814dbd	-0.063136555
193	0xbd129cc7	-0.035794046
194	0x3dd83198	0.10556334
195	0xbd73595f	-0.059411403
196	0x3d8560d0	0.06512606
197	0xbda21218	-0.07913607
198	0xbde61db2	-0.11236133
199	0xbe0cfb72	-0.13767794
200	0x3d90fc06	0.0707932
201	0xbe04c607	-0.12966166
202	0xbe1ab23c	-0.15107054
203	0x3d3335dc	0.043752536
204	0x3dc5ccb7	0.09658187
205	0xbd73d0fb	-0.05952547
206	0x3bf22de5	0.007390725
207	0x3c994906	0.018711578
208	0xbd924458	-0.07141942
209	0xbc53d182	-0.0129283685
210	0x3d42ce59	0.04756007
211	0xbbc86136	-0.006115104
212	0xbdab5908	-0.08366591
213	0xbdb09108	-0.086214125
214	0xbc9660f3	-0.018356776
215	0x3d1a789a	0.03771267
216	0xbd51b601	-0.051198963
217	0xbde14449	-0.109993525
218	0x3d36b6a6	0.04460778
219	0xbce146d5	-0.027499596
220	0x3e01ad5c	0.12663788
221	0x3d98fd12	0.07470144
222	0x3e26acc9	0.1627685
223	0xbe0ec0bf	-0.13940714
224	0xbe511f16	-0.20422015
225	0xbd2c68e6	-0.042092226
226	0x3d448068	0.04797402
227	0x3da4ccc3	0.08046868
228	0x3c9dca03	0.019261366
229	0xbc281a48	-0.010260172
230	0xbe0cba64	-0.13742977
231	0x3c46b205	0.012127404
232	0x3e09ce4d	0.13457604
233	0x3dde744e	0.10862027
234	0x3d82e3d2	0.063911095
235	0xbdd3f1a3	-0.10348823
236	0x3c197c8c	0.009368073
237	0x3d345e32	0.044035144
238	0x3d231053	0.03981049
239	0x3d0e3bc8	0.03472498
240	0x3d393b0c	0.045222327
241	0x3c482552	0.012215929
242	0x3d88f96a	0.06688197
243	0xbdc039ae	-0.093860015
244	0xbd2ccf6b	-0.042189997
245	0x3d235d8d	0.03988414
246	0x3ba962b3	0.0051692366
247	0xbd928068	-0.07153398
248	0xbd653abd	-0.05596422
249	0xbd547d0c	-0.051877066
250	0xbd84ac16	-0.06478135
251	0xbc83c802	-0.016086582
252	0xbd2940d0	-0.041321576
253	0x3c09a5d2	0.008401351
254	0x3d0c5b1e	0.034266584
255	0x3d3fa806	0.0467911

fc2.bias f4 [84]
0	0xbdbe6948	-0.092974246
1	0x3c5ebb9e	0.013594536
2	0x3bc82513	0.006107935
3	0x3d2496b4	0.040182784
4	0x3d6d92a0	0.05800116
5	0xbd9ee6b1	-0.07758845
6	0xbdbea609	-0.093090124
7	0x3da097bf	0.07841443
8	0x3c5db3a3	0.013531598
9	0xbda30e63	-0.079617284
10	0x3e29f3eb	0.16596954
11	0xbdfe05ec	-0.12403473
12	0xbca76dea	-0.020438153
13	0xbd033ca0	-0.03204024
14	0xbd3ffe95	-0.046873648
15	0xbcb2c1e9	-0.02182098
16	0x3c19eea8	0.009395279
17	0x3d954ee3	0.07290437
18	0x3b1094cf	0.0022061353
19	0x3cde0b01	0.027104856
20	0xbc0efa3b	-0.008726652
21	0x3bb8e29f	0.0056422497
22	0x3de13f9b	0.1099846
23	0x3cbd024b	0.023072382
24	0xbd11d805	-0.035606403
25	0xbdbb2b56	-0.09139125
26	0xbc14c299	-0.009079599
27	0xbda2cd22	-0.07949282
28	0x3d9dabf4	0.07698813
29	0xbc824499	-0.01590185
30	0x3d1eaf9c	0.038741693
31	0x3d528d85	0.051404495
32	0x3c1855e1	0.009297819
33	0x3dbc39ea	0.09190734
34	0xbd9ba5fc	-0.076000184
35	0x3d3bcf5b	0.045852046
36	0xbde6e36e	-0.112738475
37	0xbc136537	-0.0089962995
38	0x3cae990a	0.02131321
39	0xbd032d50	-0.032025635
40	0x3e214bb0	0.15751529
41	0x3ddda38e	0.10822211
42	0xbde56f5a	-0.11202879
43	0x3d8ea366	0.069647595
44	0xbda71d51	-0.081598885
45	0xbae42eb3	-0.0017408937
46	0x3cecb184	0.02889324
47	0x3e0d6de4	0.13811451
48	0xbc9bba90	-0.019009858
49	0x3cb46789	0.022022026
50	0xbd353122	-0.04423631
51	0xbdf73149	-0.12069947
52	0xbb964434	-0.004585767
53	0x3d118d2c	0.035535023
54	0xbe0136af	-0.12618516
55	0x3d932b21	0.071859606
56	0x3dfbcc0a	0.12294777
57	0xbdb2babd	-0.08727024
58	0x3bea94a3	0.007158832
59	0xbc11722a	-0.0088773165
60	0xbd46c9c2	-0.048532255
61	0xbd8413de	-0.06449102
62	0xbd4acb44	-0.049510255
63	0x3e290fd9	0.16509952
64	0xbd4d682a	-0.050148167
65	0xbcfdb2c7	-0.030969037
66	0xbdabf891	-0.0839702
67	0xbc90e92f	-0.017689316
68	0xbdef6166	-0.11688499
69	0x3c900b9b	0.017583659
70	0xbd941411	-0.0723039
71	0xbde6b81d	-0.112655856
72	0xbdb1154e	-0.08646642
73	0xbcd3deea	-0.02586313
74	0xbdc76242	-0.09735538
75	0xbdf2a6cf	-0.118482225
76	0xbd89554c	-0.06705722
77	0x3cc619e9	0.024182277
78	0x3d133a6c	0.035944387
79	0xbdb4940b	-0.088172995
80	0x3cc98b38	0.024602517
81	0xbb62d64d	-0.0034612597
82	0xbd624892	-0.05524499
83	0x3d923573	0.07139101

fc3.weight f4 [10, 84]
0	0x3de4a4e4	0.11164263
1	0xbe95c5fc	-0.29252613
2	0xbdc10f32	-0.094267264
3	0xbdd60c73	-0.10451593
4	0xbdc3900c	-0.09548959
5	0xbd7b1363	-0.061297785
6	0x3e2dc163	0.16968302
7	0xbde15f03	-0.1100445
8	0xbe1ddaaa	-0.15415445
9	0xbde00396	-0.10938184
10	0xbde4fe1e	-0.111812815
11	0x3ddf8c0d	0.109153844
12	0x3cd5ef2c	0.026115023
13	0x3dabb266	0.08383636
14	0x3dd5b3a9	0.10434658
15	0x3d8df409	0.06931312
16	0x3dfd59db	0.12370654
17	0xbdb4a599	-0.08820648
18	0xbc659406	-0.014012342
19	0x3d74e3d7	0.059787598
20	0xbdd62625	-0.10456494
21	0x3e41079d	0.1885056
22	0x3ce3bae5	0.02779908
23	0xbcc7cd70	-0.024389952
24	0x3cf57b76	0.029966097
25	0x3ca58b33	0.020207977
26	0x3df24eff	0.118314736
27	0x3d98ea62	0.0746658
28	0xbcffa18f	-0.031204967
29	0xbe047af7	-0.12937532
30	0xbcf09334	-0.029367067
31	0x3bc1ecc8	0.005918119
32	0xbcf94f7c	-0.030433409
33	0x3dcc4b1e	0.09975265
34	0xbd7551a6	-0.05989232
35	0xbdb5cff1	-0.08877552
36	0x3e1e2321	0.15443088
37	0x3db8a918	0.09016627
38	0xbca06317	-0.0195785
39	0x3df977c5	0.12181047
40	0x3d4afa06	0.049554847
41	0xbe3da8b9	-0.18521394
42	0x3dfaf41b	0.12253591
43	0xbe638127	-0.22217236
44	0x3dc2edf0	0.09518039
45	0xbe14b0f5	-0.14520629
46	0x3e208af7	0.15678011
47	0xbe2da544	-0.16957575
48	0x3dae8b32	0.08522643
49	0xbe545137	-0.20734106
50	0x3c6b1ead	0.014350575
51	0x3dccc57f	0.09998607
52	0x3e0be7ad	0.13662596
53	0xbd8946aa	-0.06702931
54	0x3ce1f51c	0.027582698
55	0xbe2d4ea2	-0.16924527
56	0x3d877d6f	0.066157214
57	0x3ded1fa5	0.11578301
58	0x3e219d3e	0.1578264
59	0x3d773423	0.060352456
60	0x3d8855a3	0.06656959
61	0x3e01e486	0.12684831
62	0xbd771cc3	-0.060330164
63	0xbe1d3380	-0.15351677
64	0x3dd7f3a8	0.105445206
65	0xbd0ec31b	-0.034854036
66	0xba1dd8ef	-0.00060214003
67	0xbd58481c	-0.052803144
68	0x3cdbae6c	0.02681657
69	0x3a3d9ff6	0.0007233614
70	0xbe0a5420	-0.13508654
71	0x3c9c43e4	0.019075342
72	0xbc93575c	-0.017985992
73	0x3e56140c	0.20906085
74	0xbd938352	-0.07202782
75	0x3d4d27e7	0.050086882
76	0xbd8a1152	-0.06741585
77	0xbdff9bbd	-0.124808766
78	0xbdafb1e9	-0.085788555
79	0x3d7cbb68	0.061702162
80	0x3dc1ed2d	0.09469066
81	0xbdd6820d	-0.10474024
82	0x3e0b7c2a	0.13621584
83	0xbd03050e	-0.031987242
84	0x3dd07f19	0.10180492
85	0xbe34d545	-0.17659481
86	0x3d609c39	0.054836486
87	0xbe3bc4e4	-0.18336827
88	0xbe208ed1	-0.1567948
89	0xbe67b413	-0.22627287
90	0xbd36c164	-0.044618025
91	0x3d70f611	0.058828417
92	0x3d183e3d	0.03716873
93	0x3d80e297	0.062932186
94	0xba7e4149	-0.00096990593
95	0xbe8030ac	-0.25037134
96	0x3dc4bdfb	0.096065484
97	0x3d907c88	0.070550025
98	0xbe48cd6c	-0.19609612
99	0x3df4476d	0.11927686
100	0x3e2b37f0	0.16720557
101	0xbd2eeb77	-0.042705026
102	0xbc1e753b	-0.009671505
103	0x3dd29a8f	0.10283386
104	0x3d270760	0.040778518
105	0xbee2b3f6	-0.44277924
106	0x3dd89be3	0.10576608
107	0xbdddc3d5	-0.108283676
108	0xbe31b849	-0.17355455
109	0x3d6c904a	0.057754792
110	0xbe0d3943	-0.13791375
111	0x3d5bf86c	0.05370371
112	0xbe26f244	-0.16303355
113	0xbd57890b	-0.05262093
114	0xbdb5e23c	-0.088810414
115	0xbd2b7af3	-0.0418653
116	0x3dcf7fcf	0.101317994
117	0x3e820ebd	0.2540187
118	0x3d21158b	0.039327186
119	0xbe0a7479	-0.13520993
120	0xbe90bee3	-0.28270635
121	0x3d573787	0.05254319
122	0x3c610fd1	0.013736681
123	0x3e4107f2	0.18850687
124	0xbe645391	-0.22297503
125	0xbcc940b4	-0.024566986
126	0x3d59d656	0.053182922
127	0x3dfb40af	0.12268197
128	0xbe134383	-0.14381222
129	0xbe1020bc	-0.14074987
130	0x3dd81e80	0.105526924
131	0x3e08a0c8	0.13342583
132	0x3e1e0a67	0.15433656
133	0x3e17dcf4	0.1483038
134	0xbd874cf1	-0.06606472
135	0x3d82f44a	0.06394251
136	0x3dc5c582	0.09656812
137	0xbe1bfd9b	-0.15233462
138	0xbe7eceb0	-0.24883533
139	0xbd16065a	-0.03662715
140	0x3cbb585b	0.02286928
141	0xbe19a868	-0.15005648
142	0xbda3be0f	-0.07995235
143	0x3d818d69	0.063258
144	0x3d8c3c51	0.06847442
145	0xbe90c18a	-0.2827266
146	0xbd6b8b70	-0.057506025
147	0xbca56500	-0.020189762
148	0x3e2c2cda	0.16813985
149	0xbe96b92d	-0.29438153
150	0xbd9ef97d	-0.0776243
151	0x3dd4cb71	0.10390366
152	0x3d329130	0.043595493
153	0x3e0ce66d	0.13759775
154	0x3e0cfbdb	0.1376795
155	0x3da71600	0.08158493
156	0xbdb25ce0	-0.08709121
157	0xbdbcb5f1	-0.0921439
158	0x3d2b53cd	0.041827966
159	0x3da5e719	0.08100719
160	0x3e041cfa	0.12901679
161	0x3e10c482	0.14137462
162	0xbd95860b	-0.07300957
163	0xbe36eab6	-0.17862973
164	0x3d5d61f6	0.0540485
165	0x3e16c175	0.14722236
166	0xbe054fa8	-0.13018668
167	0xbe2ebde6	-0.17064628
168	0xbe654aba	-0.22391787
169	0x3eaef95c	0.3417462
170	0x3d2c2ca8	0.042034775
171	0xbd70eafe	-0.058817856
172	0xbe0e220f	-0.1388018
173	0x3e8f893b	0.28034386
174	0x3dd975d4	0.10618177
175	0xbe9c93cf	-0.3058152
176	0xbdc76dc5	-0.09737734
177	0xbe9739f8	-0.29536414
178	0xbd37482a	-0.044746555
179	0xbdc9a90e	-0.09846698
180	0x3e516cc4	0.20451647
181	0x3cba24e6	0.022722673
182	0xbe4a3eca	-0.19750515
183	0xbe131ac9	-0.14365686
184	0xbe793a13	-0.2433856
185	0x3e1e1f3b	0.15441601
186	0x3de4b0e8	0.11166555
187	0xbe1537ea	-0.14572111
188	0x3df4d5f7	0.11954873
189	0xbdefef46	-0.1171556
190	0x3bd2dd90	0.0064351037
191	0xbe30f11b	-0.17279474
192	0xbd969649	-0.07352883
193	0xbdf03f1a	-0.11730786
194	0xbe82df46	-0.2556097
195	0xbdf6ade4	-0.12044886
196	0xbd5777fc	-0.05260466
197	0xbe3f4cb7	-0.18681608
198	0x3d46d706	0.048544906
199	0x3ce5d9d9	0.02805798
200	0x3de17c6e	0.11010061
201	0xbdf06b74	-0.11739245
202	0xbc47829e	-0.012177138
203	0xbc0f7cd5	-0.00875779
204	0xbdf70582	-0.120615974
205	0xbe1bfaba	-0.15232363
206	0xbc96a46a	-0.018388946
207	0xbdb74c40	-0.089500904
208	0xbe4f78d2	-0.20260933
209	0x3d40ec7e	0.047100537
210	0x3dbac29e	0.091191515
211	0x3db1f26e	0.08688818
212	0xbdc53b35	-0.096304335
213	0x3e2d55dd	0.16927285
214	0xbe9ed6cb	-0.3102325
215	0x3de0fa8d	0.10985289
216	0x3dc91007	0.0981751
217	0x3d11bec7	0.03558233
218	0xbe91a853	-0.28448734
219	0x3c76fa1f	0.015074282
220	0xbe85e4f4	-0.2615124
221	0x3d8ccf2e	0.06875454
222	0x3ce7f3c6	0.028314482
223	0x3e2a7a90	0.16648316
224	0x3d95fa0e	0.07323085
225	0x3d1512e9	0.036394987
226	0x3e2ebbd8	0.17063844
227	0xbdd64196	-0.10461728
228	0xbeaec117	-0.3413169
229	0x3d62972e	0.055319957
230	0xbe0ae782	-0.13564876
231	0xbde774b2	-0.11301555
232	0x3e3074df	0.17232083
233	0xbd9513a4	-0.07279137
234	0x3c9c0471	0.019045087
235	0xbe9c3e35	-0.3051621
236	0xbe154315	-0.14576371
237	0x3e12203b	0.14270107
238	0xbda2bbff	-0.07946014
239	0xbd5efe68	-0.05444184
240	0x3db120de	0.08648847
241	0xbd7a78f4	-0.061150506
242	0x3cc5ef48	0.02416195
243	0xbd2f3e00	-0.042783737
244	0x3cae5688	0.021281496
245	0xbde668bc	-0.11250445
246	0xbcb39c4f	-0.02192512
247	0xbd8d1162	-0.06888081
248	0xbdfa5d90	-0.12224877
249	0xbd8963aa	-0.067084625
250	0x3d7eb24c	0.062181756
251	0x3df456ce	0.11930619
252	0xbe6a7c32	-0.22898939
253	0xbe3f6b47	-0.18693267
254	0xbdcaaeec	-0.09896645
255	0x3db09117	0.08621424

fc3.bias f4 [10]
0	0xbd2fc406	-0.042911552
1	0x3e0aec60	0.13566732
2	0x3d33b6fc	0.04387568
3	0x3d9faaeb	0.07796272
4	0xbd2a398d	-0.04155879
5	0xbc9ab805	-0.018886575
6	0x3d17d020	0.037063718
7	0xbdf837c4	-0.121200114
8	0xbd45228c	-0.04812865
9	0xbcc41a2a	-0.023938257
